{"format": "graph-model", "generatedBy": "2.19.0", "convertedBy": "TensorFlow.js Converter v4.22.0", "signature": {"inputs": {"input_layer": {"name": "input_layer:0", "dtype": "DT_FLOAT", "tensorShape": {"dim": [{"size": "-1"}, {"size": "224"}, {"size": "224"}, {"size": "3"}]}}}, "outputs": {"output_0": {"name": "Identity:0", "dtype": "DT_FLOAT", "tensorShape": {"dim": [{"size": "-1"}, {"size": "2"}]}}}}, "modelTopology": {"node": [{"name": "StatefulPartitionedCall/ViT_Lite_Fixed_1/layer_normalization_8_1/Reshape_1", "op": "Const", "attr": {"value": {"tensor": {"dtype": "DT_FLOAT", "tensorShape": {"dim": [{"size": "1"}, {"size": "1"}, {"size": "256"}]}}}, "dtype": {"type": "DT_FLOAT"}}}, {"name": "StatefulPartitionedCall/ViT_Lite_Fixed_1/dense_7_1/Gelu/mul/x", "op": "Const", "attr": {"value": {"tensor": {"dtype": "DT_FLOAT", "tensorShape": {}}}, "dtype": {"type": "DT_FLOAT"}}}, {"name": "StatefulPartitionedCall/ViT_Lite_Fixed_1/layer_normalization_7_1/Reshape_1", "op": "Const", "attr": {"value": {"tensor": {"dtype": "DT_FLOAT", "tensorShape": {"dim": [{"size": "1"}, {"size": "1"}, {"size": "256"}]}}}, "dtype": {"type": "DT_FLOAT"}}}, {"name": "StatefulPartitionedCall/ViT_Lite_Fixed_1/layer_normalization_7_1/moments/mean/reduction_indices", "op": "Const", "attr": {"value": {"tensor": {"dtype": "DT_INT32", "tensorShape": {"dim": [{"size": "1"}]}}}, "dtype": {"type": "DT_INT32"}}}, {"name": "StatefulPartitionedCall/ViT_Lite_Fixed_1/layer_normalization_7_1/moments/variance/reduction_indices", "op": "Const", "attr": {"value": {"tensor": {"dtype": "DT_INT32", "tensorShape": {"dim": [{"size": "1"}]}}}, "dtype": {"type": "DT_INT32"}}}, {"name": "StatefulPartitionedCall/ViT_Lite_Fixed_1/layer_normalization_7_1/add/y", "op": "Const", "attr": {"value": {"tensor": {"dtype": "DT_FLOAT", "tensorShape": {}}}, "dtype": {"type": "DT_FLOAT"}}}, {"name": "StatefulPartitionedCall/ViT_Lite_Fixed_1/layer_normalization_7_1/Reshape", "op": "Const", "attr": {"value": {"tensor": {"dtype": "DT_FLOAT", "tensorShape": {"dim": [{"size": "1"}, {"size": "1"}, {"size": "256"}]}}}, "dtype": {"type": "DT_FLOAT"}}}, {"name": "StatefulPartitionedCall/ViT_Lite_Fixed_1/dense_7_1/Cast/ReadVariableOp", "op": "Const", "attr": {"value": {"tensor": {"dtype": "DT_FLOAT", "tensorShape": {"dim": [{"size": "256"}, {"size": "512"}]}}}, "dtype": {"type": "DT_FLOAT"}}}, {"name": "StatefulPartitionedCall/ViT_Lite_Fixed_1/dense_7_1/BiasAdd/ReadVariableOp", "op": "Const", "attr": {"value": {"tensor": {"dtype": "DT_FLOAT", "tensorShape": {"dim": [{"size": "512"}]}}}, "dtype": {"type": "DT_FLOAT"}}}, {"name": "StatefulPartitionedCall/ViT_Lite_Fixed_1/dense_7_1/Gelu/Cast/x", "op": "Const", "attr": {"value": {"tensor": {"dtype": "DT_FLOAT", "tensorShape": {}}}, "dtype": {"type": "DT_FLOAT"}}}, {"name": "StatefulPartitionedCall/ViT_Lite_Fixed_1/dense_8_1/Cast/ReadVariableOp", "op": "Const", "attr": {"value": {"tensor": {"dtype": "DT_FLOAT", "tensorShape": {"dim": [{"size": "512"}, {"size": "256"}]}}}, "dtype": {"type": "DT_FLOAT"}}}, {"name": "StatefulPartitionedCall/ViT_Lite_Fixed_1/dense_8_1/BiasAdd/ReadVariableOp", "op": "Const", "attr": {"value": {"tensor": {"dtype": "DT_FLOAT", "tensorShape": {"dim": [{"size": "256"}]}}}, "dtype": {"type": "DT_FLOAT"}}}, {"name": "StatefulPartitionedCall/ViT_Lite_Fixed_1/multi_head_attention_3_1/key_1/Reshape", "op": "Const", "attr": {"value": {"tensor": {"dtype": "DT_FLOAT", "tensorShape": {"dim": [{"size": "256"}, {"size": "256"}]}}}, "dtype": {"type": "DT_FLOAT"}}}, {"name": "StatefulPartitionedCall/ViT_Lite_Fixed_1/multi_head_attention_3_1/key_1/Reshape_1/shape", "op": "Const", "attr": {"value": {"tensor": {"dtype": "DT_INT32", "tensorShape": {"dim": [{"size": "4"}]}}}, "dtype": {"type": "DT_INT32"}}}, {"name": "StatefulPartitionedCall/ViT_Lite_Fixed_1/multi_head_attention_3_1/key_1/Add/ReadVariableOp", "op": "Const", "attr": {"value": {"tensor": {"dtype": "DT_FLOAT", "tensorShape": {"dim": [{"size": "4"}, {"size": "64"}]}}}, "dtype": {"type": "DT_FLOAT"}}}, {"name": "StatefulPartitionedCall/ViT_Lite_Fixed_1/multi_head_attention_3_1/transpose/perm", "op": "Const", "attr": {"value": {"tensor": {"dtype": "DT_INT32", "tensorShape": {"dim": [{"size": "4"}]}}}, "dtype": {"type": "DT_INT32"}}}, {"name": "StatefulPartitionedCall/ViT_Lite_Fixed_1/multi_head_attention_3_1/query_1/Reshape", "op": "Const", "attr": {"value": {"tensor": {"dtype": "DT_FLOAT", "tensorShape": {"dim": [{"size": "256"}, {"size": "256"}]}}}, "dtype": {"type": "DT_FLOAT"}}}, {"name": "StatefulPartitionedCall/ViT_Lite_Fixed_1/multi_head_attention_3_1/query_1/Reshape_1/shape", "op": "Const", "attr": {"value": {"tensor": {"dtype": "DT_INT32", "tensorShape": {"dim": [{"size": "4"}]}}}, "dtype": {"type": "DT_INT32"}}}, {"name": "StatefulPartitionedCall/ViT_Lite_Fixed_1/multi_head_attention_3_1/query_1/Add/ReadVariableOp", "op": "Const", "attr": {"value": {"tensor": {"dtype": "DT_FLOAT", "tensorShape": {"dim": [{"size": "4"}, {"size": "64"}]}}}, "dtype": {"type": "DT_FLOAT"}}}, {"name": "StatefulPartitionedCall/ViT_Lite_Fixed_1/multi_head_attention_3_1/Cast/x", "op": "Const", "attr": {"value": {"tensor": {"dtype": "DT_FLOAT", "tensorShape": {}}}, "dtype": {"type": "DT_FLOAT"}}}, {"name": "StatefulPartitionedCall/ViT_Lite_Fixed_1/multi_head_attention_3_1/transpose_1/perm", "op": "Const", "attr": {"value": {"tensor": {"dtype": "DT_INT32", "tensorShape": {"dim": [{"size": "4"}]}}}, "dtype": {"type": "DT_INT32"}}}, {"name": "StatefulPartitionedCall/ViT_Lite_Fixed_1/multi_head_attention_3_1/transpose_2/perm", "op": "Const", "attr": {"value": {"tensor": {"dtype": "DT_INT32", "tensorShape": {"dim": [{"size": "4"}]}}}, "dtype": {"type": "DT_INT32"}}}, {"name": "StatefulPartitionedCall/ViT_Lite_Fixed_1/layer_normalization_6_1/Reshape_1", "op": "Const", "attr": {"value": {"tensor": {"dtype": "DT_FLOAT", "tensorShape": {"dim": [{"size": "1"}, {"size": "1"}, {"size": "256"}]}}}, "dtype": {"type": "DT_FLOAT"}}}, {"name": "StatefulPartitionedCall/ViT_Lite_Fixed_1/layer_normalization_6_1/moments/mean/reduction_indices", "op": "Const", "attr": {"value": {"tensor": {"dtype": "DT_INT32", "tensorShape": {"dim": [{"size": "1"}]}}}, "dtype": {"type": "DT_INT32"}}}, {"name": "StatefulPartitionedCall/ViT_Lite_Fixed_1/layer_normalization_6_1/moments/variance/reduction_indices", "op": "Const", "attr": {"value": {"tensor": {"dtype": "DT_INT32", "tensorShape": {"dim": [{"size": "1"}]}}}, "dtype": {"type": "DT_INT32"}}}, {"name": "StatefulPartitionedCall/ViT_Lite_Fixed_1/layer_normalization_6_1/add/y", "op": "Const", "attr": {"value": {"tensor": {"dtype": "DT_FLOAT", "tensorShape": {}}}, "dtype": {"type": "DT_FLOAT"}}}, {"name": "StatefulPartitionedCall/ViT_Lite_Fixed_1/layer_normalization_6_1/Reshape", "op": "Const", "attr": {"value": {"tensor": {"dtype": "DT_FLOAT", "tensorShape": {"dim": [{"size": "1"}, {"size": "1"}, {"size": "256"}]}}}, "dtype": {"type": "DT_FLOAT"}}}, {"name": "StatefulPartitionedCall/ViT_Lite_Fixed_1/multi_head_attention_3_1/value_1/Reshape", "op": "Const", "attr": {"value": {"tensor": {"dtype": "DT_FLOAT", "tensorShape": {"dim": [{"size": "256"}, {"size": "256"}]}}}, "dtype": {"type": "DT_FLOAT"}}}, {"name": "StatefulPartitionedCall/ViT_Lite_Fixed_1/multi_head_attention_3_1/value_1/Reshape_1/shape", "op": "Const", "attr": {"value": {"tensor": {"dtype": "DT_INT32", "tensorShape": {"dim": [{"size": "4"}]}}}, "dtype": {"type": "DT_INT32"}}}, {"name": "StatefulPartitionedCall/ViT_Lite_Fixed_1/multi_head_attention_3_1/value_1/Add/ReadVariableOp", "op": "Const", "attr": {"value": {"tensor": {"dtype": "DT_FLOAT", "tensorShape": {"dim": [{"size": "4"}, {"size": "64"}]}}}, "dtype": {"type": "DT_FLOAT"}}}, {"name": "StatefulPartitionedCall/ViT_Lite_Fixed_1/multi_head_attention_3_1/transpose_3/perm", "op": "Const", "attr": {"value": {"tensor": {"dtype": "DT_INT32", "tensorShape": {"dim": [{"size": "4"}]}}}, "dtype": {"type": "DT_INT32"}}}, {"name": "StatefulPartitionedCall/ViT_Lite_Fixed_1/multi_head_attention_3_1/transpose_4/perm", "op": "Const", "attr": {"value": {"tensor": {"dtype": "DT_INT32", "tensorShape": {"dim": [{"size": "4"}]}}}, "dtype": {"type": "DT_INT32"}}}, {"name": "StatefulPartitionedCall/ViT_Lite_Fixed_1/multi_head_attention_3_1/attention_output_1/Reshape/shape", "op": "Const", "attr": {"value": {"tensor": {"dtype": "DT_INT32", "tensorShape": {"dim": [{"size": "3"}]}}}, "dtype": {"type": "DT_INT32"}}}, {"name": "StatefulPartitionedCall/ViT_Lite_Fixed_1/multi_head_attention_3_1/attention_output_1/Reshape_1", "op": "Const", "attr": {"value": {"tensor": {"dtype": "DT_FLOAT", "tensorShape": {"dim": [{"size": "256"}, {"size": "256"}]}}}, "dtype": {"type": "DT_FLOAT"}}}, {"name": "StatefulPartitionedCall/ViT_Lite_Fixed_1/multi_head_attention_3_1/attention_output_1/BiasAdd/ReadVariableOp", "op": "Const", "attr": {"value": {"tensor": {"dtype": "DT_FLOAT", "tensorShape": {"dim": [{"size": "256"}]}}}, "dtype": {"type": "DT_FLOAT"}}}, {"name": "StatefulPartitionedCall/ViT_Lite_Fixed_1/dense_5_1/Gelu/mul/x", "op": "Const", "attr": {"value": {"tensor": {"dtype": "DT_FLOAT", "tensorShape": {}}}, "dtype": {"type": "DT_FLOAT"}}}, {"name": "StatefulPartitionedCall/ViT_Lite_Fixed_1/layer_normalization_5_1/Reshape_1", "op": "Const", "attr": {"value": {"tensor": {"dtype": "DT_FLOAT", "tensorShape": {"dim": [{"size": "1"}, {"size": "1"}, {"size": "256"}]}}}, "dtype": {"type": "DT_FLOAT"}}}, {"name": "StatefulPartitionedCall/ViT_Lite_Fixed_1/layer_normalization_5_1/moments/mean/reduction_indices", "op": "Const", "attr": {"value": {"tensor": {"dtype": "DT_INT32", "tensorShape": {"dim": [{"size": "1"}]}}}, "dtype": {"type": "DT_INT32"}}}, {"name": "StatefulPartitionedCall/ViT_Lite_Fixed_1/layer_normalization_5_1/moments/variance/reduction_indices", "op": "Const", "attr": {"value": {"tensor": {"dtype": "DT_INT32", "tensorShape": {"dim": [{"size": "1"}]}}}, "dtype": {"type": "DT_INT32"}}}, {"name": "StatefulPartitionedCall/ViT_Lite_Fixed_1/layer_normalization_5_1/add/y", "op": "Const", "attr": {"value": {"tensor": {"dtype": "DT_FLOAT", "tensorShape": {}}}, "dtype": {"type": "DT_FLOAT"}}}, {"name": "StatefulPartitionedCall/ViT_Lite_Fixed_1/layer_normalization_5_1/Reshape", "op": "Const", "attr": {"value": {"tensor": {"dtype": "DT_FLOAT", "tensorShape": {"dim": [{"size": "1"}, {"size": "1"}, {"size": "256"}]}}}, "dtype": {"type": "DT_FLOAT"}}}, {"name": "StatefulPartitionedCall/ViT_Lite_Fixed_1/dense_5_1/Cast/ReadVariableOp", "op": "Const", "attr": {"value": {"tensor": {"dtype": "DT_FLOAT", "tensorShape": {"dim": [{"size": "256"}, {"size": "512"}]}}}, "dtype": {"type": "DT_FLOAT"}}}, {"name": "StatefulPartitionedCall/ViT_Lite_Fixed_1/dense_5_1/BiasAdd/ReadVariableOp", "op": "Const", "attr": {"value": {"tensor": {"dtype": "DT_FLOAT", "tensorShape": {"dim": [{"size": "512"}]}}}, "dtype": {"type": "DT_FLOAT"}}}, {"name": "StatefulPartitionedCall/ViT_Lite_Fixed_1/dense_5_1/Gelu/Cast/x", "op": "Const", "attr": {"value": {"tensor": {"dtype": "DT_FLOAT", "tensorShape": {}}}, "dtype": {"type": "DT_FLOAT"}}}, {"name": "StatefulPartitionedCall/ViT_Lite_Fixed_1/dense_6_1/Cast/ReadVariableOp", "op": "Const", "attr": {"value": {"tensor": {"dtype": "DT_FLOAT", "tensorShape": {"dim": [{"size": "512"}, {"size": "256"}]}}}, "dtype": {"type": "DT_FLOAT"}}}, {"name": "StatefulPartitionedCall/ViT_Lite_Fixed_1/dense_6_1/BiasAdd/ReadVariableOp", "op": "Const", "attr": {"value": {"tensor": {"dtype": "DT_FLOAT", "tensorShape": {"dim": [{"size": "256"}]}}}, "dtype": {"type": "DT_FLOAT"}}}, {"name": "StatefulPartitionedCall/ViT_Lite_Fixed_1/multi_head_attention_2_1/key_1/Reshape", "op": "Const", "attr": {"value": {"tensor": {"dtype": "DT_FLOAT", "tensorShape": {"dim": [{"size": "256"}, {"size": "256"}]}}}, "dtype": {"type": "DT_FLOAT"}}}, {"name": "StatefulPartitionedCall/ViT_Lite_Fixed_1/multi_head_attention_2_1/key_1/Reshape_1/shape", "op": "Const", "attr": {"value": {"tensor": {"dtype": "DT_INT32", "tensorShape": {"dim": [{"size": "4"}]}}}, "dtype": {"type": "DT_INT32"}}}, {"name": "StatefulPartitionedCall/ViT_Lite_Fixed_1/multi_head_attention_2_1/key_1/Add/ReadVariableOp", "op": "Const", "attr": {"value": {"tensor": {"dtype": "DT_FLOAT", "tensorShape": {"dim": [{"size": "4"}, {"size": "64"}]}}}, "dtype": {"type": "DT_FLOAT"}}}, {"name": "StatefulPartitionedCall/ViT_Lite_Fixed_1/multi_head_attention_2_1/transpose/perm", "op": "Const", "attr": {"value": {"tensor": {"dtype": "DT_INT32", "tensorShape": {"dim": [{"size": "4"}]}}}, "dtype": {"type": "DT_INT32"}}}, {"name": "StatefulPartitionedCall/ViT_Lite_Fixed_1/multi_head_attention_2_1/query_1/Reshape", "op": "Const", "attr": {"value": {"tensor": {"dtype": "DT_FLOAT", "tensorShape": {"dim": [{"size": "256"}, {"size": "256"}]}}}, "dtype": {"type": "DT_FLOAT"}}}, {"name": "StatefulPartitionedCall/ViT_Lite_Fixed_1/multi_head_attention_2_1/query_1/Reshape_1/shape", "op": "Const", "attr": {"value": {"tensor": {"dtype": "DT_INT32", "tensorShape": {"dim": [{"size": "4"}]}}}, "dtype": {"type": "DT_INT32"}}}, {"name": "StatefulPartitionedCall/ViT_Lite_Fixed_1/multi_head_attention_2_1/query_1/Add/ReadVariableOp", "op": "Const", "attr": {"value": {"tensor": {"dtype": "DT_FLOAT", "tensorShape": {"dim": [{"size": "4"}, {"size": "64"}]}}}, "dtype": {"type": "DT_FLOAT"}}}, {"name": "StatefulPartitionedCall/ViT_Lite_Fixed_1/multi_head_attention_2_1/Cast/x", "op": "Const", "attr": {"value": {"tensor": {"dtype": "DT_FLOAT", "tensorShape": {}}}, "dtype": {"type": "DT_FLOAT"}}}, {"name": "StatefulPartitionedCall/ViT_Lite_Fixed_1/multi_head_attention_2_1/transpose_1/perm", "op": "Const", "attr": {"value": {"tensor": {"dtype": "DT_INT32", "tensorShape": {"dim": [{"size": "4"}]}}}, "dtype": {"type": "DT_INT32"}}}, {"name": "StatefulPartitionedCall/ViT_Lite_Fixed_1/multi_head_attention_2_1/transpose_2/perm", "op": "Const", "attr": {"value": {"tensor": {"dtype": "DT_INT32", "tensorShape": {"dim": [{"size": "4"}]}}}, "dtype": {"type": "DT_INT32"}}}, {"name": "StatefulPartitionedCall/ViT_Lite_Fixed_1/layer_normalization_4_1/Reshape_1", "op": "Const", "attr": {"value": {"tensor": {"dtype": "DT_FLOAT", "tensorShape": {"dim": [{"size": "1"}, {"size": "1"}, {"size": "256"}]}}}, "dtype": {"type": "DT_FLOAT"}}}, {"name": "StatefulPartitionedCall/ViT_Lite_Fixed_1/layer_normalization_4_1/moments/mean/reduction_indices", "op": "Const", "attr": {"value": {"tensor": {"dtype": "DT_INT32", "tensorShape": {"dim": [{"size": "1"}]}}}, "dtype": {"type": "DT_INT32"}}}, {"name": "StatefulPartitionedCall/ViT_Lite_Fixed_1/layer_normalization_4_1/moments/variance/reduction_indices", "op": "Const", "attr": {"value": {"tensor": {"dtype": "DT_INT32", "tensorShape": {"dim": [{"size": "1"}]}}}, "dtype": {"type": "DT_INT32"}}}, {"name": "StatefulPartitionedCall/ViT_Lite_Fixed_1/layer_normalization_4_1/add/y", "op": "Const", "attr": {"value": {"tensor": {"dtype": "DT_FLOAT", "tensorShape": {}}}, "dtype": {"type": "DT_FLOAT"}}}, {"name": "StatefulPartitionedCall/ViT_Lite_Fixed_1/layer_normalization_4_1/Reshape", "op": "Const", "attr": {"value": {"tensor": {"dtype": "DT_FLOAT", "tensorShape": {"dim": [{"size": "1"}, {"size": "1"}, {"size": "256"}]}}}, "dtype": {"type": "DT_FLOAT"}}}, {"name": "StatefulPartitionedCall/ViT_Lite_Fixed_1/multi_head_attention_2_1/value_1/Reshape", "op": "Const", "attr": {"value": {"tensor": {"dtype": "DT_FLOAT", "tensorShape": {"dim": [{"size": "256"}, {"size": "256"}]}}}, "dtype": {"type": "DT_FLOAT"}}}, {"name": "StatefulPartitionedCall/ViT_Lite_Fixed_1/multi_head_attention_2_1/value_1/Reshape_1/shape", "op": "Const", "attr": {"value": {"tensor": {"dtype": "DT_INT32", "tensorShape": {"dim": [{"size": "4"}]}}}, "dtype": {"type": "DT_INT32"}}}, {"name": "StatefulPartitionedCall/ViT_Lite_Fixed_1/multi_head_attention_2_1/value_1/Add/ReadVariableOp", "op": "Const", "attr": {"value": {"tensor": {"dtype": "DT_FLOAT", "tensorShape": {"dim": [{"size": "4"}, {"size": "64"}]}}}, "dtype": {"type": "DT_FLOAT"}}}, {"name": "StatefulPartitionedCall/ViT_Lite_Fixed_1/multi_head_attention_2_1/transpose_3/perm", "op": "Const", "attr": {"value": {"tensor": {"dtype": "DT_INT32", "tensorShape": {"dim": [{"size": "4"}]}}}, "dtype": {"type": "DT_INT32"}}}, {"name": "StatefulPartitionedCall/ViT_Lite_Fixed_1/multi_head_attention_2_1/transpose_4/perm", "op": "Const", "attr": {"value": {"tensor": {"dtype": "DT_INT32", "tensorShape": {"dim": [{"size": "4"}]}}}, "dtype": {"type": "DT_INT32"}}}, {"name": "StatefulPartitionedCall/ViT_Lite_Fixed_1/multi_head_attention_2_1/attention_output_1/Reshape/shape", "op": "Const", "attr": {"value": {"tensor": {"dtype": "DT_INT32", "tensorShape": {"dim": [{"size": "3"}]}}}, "dtype": {"type": "DT_INT32"}}}, {"name": "StatefulPartitionedCall/ViT_Lite_Fixed_1/multi_head_attention_2_1/attention_output_1/Reshape_1", "op": "Const", "attr": {"value": {"tensor": {"dtype": "DT_FLOAT", "tensorShape": {"dim": [{"size": "256"}, {"size": "256"}]}}}, "dtype": {"type": "DT_FLOAT"}}}, {"name": "StatefulPartitionedCall/ViT_Lite_Fixed_1/multi_head_attention_2_1/attention_output_1/BiasAdd/ReadVariableOp", "op": "Const", "attr": {"value": {"tensor": {"dtype": "DT_FLOAT", "tensorShape": {"dim": [{"size": "256"}]}}}, "dtype": {"type": "DT_FLOAT"}}}, {"name": "StatefulPartitionedCall/ViT_Lite_Fixed_1/dense_3_1/Gelu/mul/x", "op": "Const", "attr": {"value": {"tensor": {"dtype": "DT_FLOAT", "tensorShape": {}}}, "dtype": {"type": "DT_FLOAT"}}}, {"name": "StatefulPartitionedCall/ViT_Lite_Fixed_1/layer_normalization_3_1/Reshape_1", "op": "Const", "attr": {"value": {"tensor": {"dtype": "DT_FLOAT", "tensorShape": {"dim": [{"size": "1"}, {"size": "1"}, {"size": "256"}]}}}, "dtype": {"type": "DT_FLOAT"}}}, {"name": "StatefulPartitionedCall/ViT_Lite_Fixed_1/layer_normalization_3_1/moments/mean/reduction_indices", "op": "Const", "attr": {"value": {"tensor": {"dtype": "DT_INT32", "tensorShape": {"dim": [{"size": "1"}]}}}, "dtype": {"type": "DT_INT32"}}}, {"name": "StatefulPartitionedCall/ViT_Lite_Fixed_1/layer_normalization_3_1/moments/variance/reduction_indices", "op": "Const", "attr": {"value": {"tensor": {"dtype": "DT_INT32", "tensorShape": {"dim": [{"size": "1"}]}}}, "dtype": {"type": "DT_INT32"}}}, {"name": "StatefulPartitionedCall/ViT_Lite_Fixed_1/layer_normalization_3_1/add/y", "op": "Const", "attr": {"value": {"tensor": {"dtype": "DT_FLOAT", "tensorShape": {}}}, "dtype": {"type": "DT_FLOAT"}}}, {"name": "StatefulPartitionedCall/ViT_Lite_Fixed_1/layer_normalization_3_1/Reshape", "op": "Const", "attr": {"value": {"tensor": {"dtype": "DT_FLOAT", "tensorShape": {"dim": [{"size": "1"}, {"size": "1"}, {"size": "256"}]}}}, "dtype": {"type": "DT_FLOAT"}}}, {"name": "StatefulPartitionedCall/ViT_Lite_Fixed_1/dense_3_1/Cast/ReadVariableOp", "op": "Const", "attr": {"value": {"tensor": {"dtype": "DT_FLOAT", "tensorShape": {"dim": [{"size": "256"}, {"size": "512"}]}}}, "dtype": {"type": "DT_FLOAT"}}}, {"name": "StatefulPartitionedCall/ViT_Lite_Fixed_1/dense_3_1/BiasAdd/ReadVariableOp", "op": "Const", "attr": {"value": {"tensor": {"dtype": "DT_FLOAT", "tensorShape": {"dim": [{"size": "512"}]}}}, "dtype": {"type": "DT_FLOAT"}}}, {"name": "StatefulPartitionedCall/ViT_Lite_Fixed_1/dense_3_1/Gelu/Cast/x", "op": "Const", "attr": {"value": {"tensor": {"dtype": "DT_FLOAT", "tensorShape": {}}}, "dtype": {"type": "DT_FLOAT"}}}, {"name": "StatefulPartitionedCall/ViT_Lite_Fixed_1/dense_4_1/Cast/ReadVariableOp", "op": "Const", "attr": {"value": {"tensor": {"dtype": "DT_FLOAT", "tensorShape": {"dim": [{"size": "512"}, {"size": "256"}]}}}, "dtype": {"type": "DT_FLOAT"}}}, {"name": "StatefulPartitionedCall/ViT_Lite_Fixed_1/dense_4_1/BiasAdd/ReadVariableOp", "op": "Const", "attr": {"value": {"tensor": {"dtype": "DT_FLOAT", "tensorShape": {"dim": [{"size": "256"}]}}}, "dtype": {"type": "DT_FLOAT"}}}, {"name": "StatefulPartitionedCall/ViT_Lite_Fixed_1/multi_head_attention_1_2/key_1/Reshape", "op": "Const", "attr": {"value": {"tensor": {"dtype": "DT_FLOAT", "tensorShape": {"dim": [{"size": "256"}, {"size": "256"}]}}}, "dtype": {"type": "DT_FLOAT"}}}, {"name": "StatefulPartitionedCall/ViT_Lite_Fixed_1/multi_head_attention_1_2/key_1/Reshape_1/shape", "op": "Const", "attr": {"value": {"tensor": {"dtype": "DT_INT32", "tensorShape": {"dim": [{"size": "4"}]}}}, "dtype": {"type": "DT_INT32"}}}, {"name": "StatefulPartitionedCall/ViT_Lite_Fixed_1/multi_head_attention_1_2/key_1/Add/ReadVariableOp", "op": "Const", "attr": {"value": {"tensor": {"dtype": "DT_FLOAT", "tensorShape": {"dim": [{"size": "4"}, {"size": "64"}]}}}, "dtype": {"type": "DT_FLOAT"}}}, {"name": "StatefulPartitionedCall/ViT_Lite_Fixed_1/multi_head_attention_1_2/transpose/perm", "op": "Const", "attr": {"value": {"tensor": {"dtype": "DT_INT32", "tensorShape": {"dim": [{"size": "4"}]}}}, "dtype": {"type": "DT_INT32"}}}, {"name": "StatefulPartitionedCall/ViT_Lite_Fixed_1/multi_head_attention_1_2/query_1/Reshape", "op": "Const", "attr": {"value": {"tensor": {"dtype": "DT_FLOAT", "tensorShape": {"dim": [{"size": "256"}, {"size": "256"}]}}}, "dtype": {"type": "DT_FLOAT"}}}, {"name": "StatefulPartitionedCall/ViT_Lite_Fixed_1/multi_head_attention_1_2/query_1/Reshape_1/shape", "op": "Const", "attr": {"value": {"tensor": {"dtype": "DT_INT32", "tensorShape": {"dim": [{"size": "4"}]}}}, "dtype": {"type": "DT_INT32"}}}, {"name": "StatefulPartitionedCall/ViT_Lite_Fixed_1/multi_head_attention_1_2/query_1/Add/ReadVariableOp", "op": "Const", "attr": {"value": {"tensor": {"dtype": "DT_FLOAT", "tensorShape": {"dim": [{"size": "4"}, {"size": "64"}]}}}, "dtype": {"type": "DT_FLOAT"}}}, {"name": "StatefulPartitionedCall/ViT_Lite_Fixed_1/multi_head_attention_1_2/Cast/x", "op": "Const", "attr": {"value": {"tensor": {"dtype": "DT_FLOAT", "tensorShape": {}}}, "dtype": {"type": "DT_FLOAT"}}}, {"name": "StatefulPartitionedCall/ViT_Lite_Fixed_1/multi_head_attention_1_2/transpose_1/perm", "op": "Const", "attr": {"value": {"tensor": {"dtype": "DT_INT32", "tensorShape": {"dim": [{"size": "4"}]}}}, "dtype": {"type": "DT_INT32"}}}, {"name": "StatefulPartitionedCall/ViT_Lite_Fixed_1/multi_head_attention_1_2/transpose_2/perm", "op": "Const", "attr": {"value": {"tensor": {"dtype": "DT_INT32", "tensorShape": {"dim": [{"size": "4"}]}}}, "dtype": {"type": "DT_INT32"}}}, {"name": "StatefulPartitionedCall/ViT_Lite_Fixed_1/layer_normalization_2_1/Reshape_1", "op": "Const", "attr": {"value": {"tensor": {"dtype": "DT_FLOAT", "tensorShape": {"dim": [{"size": "1"}, {"size": "1"}, {"size": "256"}]}}}, "dtype": {"type": "DT_FLOAT"}}}, {"name": "StatefulPartitionedCall/ViT_Lite_Fixed_1/layer_normalization_2_1/moments/mean/reduction_indices", "op": "Const", "attr": {"value": {"tensor": {"dtype": "DT_INT32", "tensorShape": {"dim": [{"size": "1"}]}}}, "dtype": {"type": "DT_INT32"}}}, {"name": "StatefulPartitionedCall/ViT_Lite_Fixed_1/layer_normalization_2_1/moments/variance/reduction_indices", "op": "Const", "attr": {"value": {"tensor": {"dtype": "DT_INT32", "tensorShape": {"dim": [{"size": "1"}]}}}, "dtype": {"type": "DT_INT32"}}}, {"name": "StatefulPartitionedCall/ViT_Lite_Fixed_1/layer_normalization_2_1/add/y", "op": "Const", "attr": {"value": {"tensor": {"dtype": "DT_FLOAT", "tensorShape": {}}}, "dtype": {"type": "DT_FLOAT"}}}, {"name": "StatefulPartitionedCall/ViT_Lite_Fixed_1/layer_normalization_2_1/Reshape", "op": "Const", "attr": {"value": {"tensor": {"dtype": "DT_FLOAT", "tensorShape": {"dim": [{"size": "1"}, {"size": "1"}, {"size": "256"}]}}}, "dtype": {"type": "DT_FLOAT"}}}, {"name": "StatefulPartitionedCall/ViT_Lite_Fixed_1/multi_head_attention_1_2/value_1/Reshape", "op": "Const", "attr": {"value": {"tensor": {"dtype": "DT_FLOAT", "tensorShape": {"dim": [{"size": "256"}, {"size": "256"}]}}}, "dtype": {"type": "DT_FLOAT"}}}, {"name": "StatefulPartitionedCall/ViT_Lite_Fixed_1/multi_head_attention_1_2/value_1/Reshape_1/shape", "op": "Const", "attr": {"value": {"tensor": {"dtype": "DT_INT32", "tensorShape": {"dim": [{"size": "4"}]}}}, "dtype": {"type": "DT_INT32"}}}, {"name": "StatefulPartitionedCall/ViT_Lite_Fixed_1/multi_head_attention_1_2/value_1/Add/ReadVariableOp", "op": "Const", "attr": {"value": {"tensor": {"dtype": "DT_FLOAT", "tensorShape": {"dim": [{"size": "4"}, {"size": "64"}]}}}, "dtype": {"type": "DT_FLOAT"}}}, {"name": "StatefulPartitionedCall/ViT_Lite_Fixed_1/multi_head_attention_1_2/transpose_3/perm", "op": "Const", "attr": {"value": {"tensor": {"dtype": "DT_INT32", "tensorShape": {"dim": [{"size": "4"}]}}}, "dtype": {"type": "DT_INT32"}}}, {"name": "StatefulPartitionedCall/ViT_Lite_Fixed_1/multi_head_attention_1_2/transpose_4/perm", "op": "Const", "attr": {"value": {"tensor": {"dtype": "DT_INT32", "tensorShape": {"dim": [{"size": "4"}]}}}, "dtype": {"type": "DT_INT32"}}}, {"name": "StatefulPartitionedCall/ViT_Lite_Fixed_1/multi_head_attention_1_2/attention_output_1/Reshape/shape", "op": "Const", "attr": {"value": {"tensor": {"dtype": "DT_INT32", "tensorShape": {"dim": [{"size": "3"}]}}}, "dtype": {"type": "DT_INT32"}}}, {"name": "StatefulPartitionedCall/ViT_Lite_Fixed_1/multi_head_attention_1_2/attention_output_1/Reshape_1", "op": "Const", "attr": {"value": {"tensor": {"dtype": "DT_FLOAT", "tensorShape": {"dim": [{"size": "256"}, {"size": "256"}]}}}, "dtype": {"type": "DT_FLOAT"}}}, {"name": "StatefulPartitionedCall/ViT_Lite_Fixed_1/multi_head_attention_1_2/attention_output_1/BiasAdd/ReadVariableOp", "op": "Const", "attr": {"value": {"tensor": {"dtype": "DT_FLOAT", "tensorShape": {"dim": [{"size": "256"}]}}}, "dtype": {"type": "DT_FLOAT"}}}, {"name": "StatefulPartitionedCall/ViT_Lite_Fixed_1/dense_1_1/Gelu/mul/x", "op": "Const", "attr": {"value": {"tensor": {"dtype": "DT_FLOAT", "tensorShape": {}}}, "dtype": {"type": "DT_FLOAT"}}}, {"name": "StatefulPartitionedCall/ViT_Lite_Fixed_1/layer_normalization_1_2/Reshape_1", "op": "Const", "attr": {"value": {"tensor": {"dtype": "DT_FLOAT", "tensorShape": {"dim": [{"size": "1"}, {"size": "1"}, {"size": "256"}]}}}, "dtype": {"type": "DT_FLOAT"}}}, {"name": "StatefulPartitionedCall/ViT_Lite_Fixed_1/layer_normalization_1_2/moments/mean/reduction_indices", "op": "Const", "attr": {"value": {"tensor": {"dtype": "DT_INT32", "tensorShape": {"dim": [{"size": "1"}]}}}, "dtype": {"type": "DT_INT32"}}}, {"name": "StatefulPartitionedCall/ViT_Lite_Fixed_1/layer_normalization_1_2/moments/variance/reduction_indices", "op": "Const", "attr": {"value": {"tensor": {"dtype": "DT_INT32", "tensorShape": {"dim": [{"size": "1"}]}}}, "dtype": {"type": "DT_INT32"}}}, {"name": "StatefulPartitionedCall/ViT_Lite_Fixed_1/layer_normalization_1_2/add/y", "op": "Const", "attr": {"value": {"tensor": {"dtype": "DT_FLOAT", "tensorShape": {}}}, "dtype": {"type": "DT_FLOAT"}}}, {"name": "StatefulPartitionedCall/ViT_Lite_Fixed_1/layer_normalization_1_2/Reshape", "op": "Const", "attr": {"value": {"tensor": {"dtype": "DT_FLOAT", "tensorShape": {"dim": [{"size": "1"}, {"size": "1"}, {"size": "256"}]}}}, "dtype": {"type": "DT_FLOAT"}}}, {"name": "StatefulPartitionedCall/ViT_Lite_Fixed_1/dense_1_1/Cast/ReadVariableOp", "op": "Const", "attr": {"value": {"tensor": {"dtype": "DT_FLOAT", "tensorShape": {"dim": [{"size": "256"}, {"size": "512"}]}}}, "dtype": {"type": "DT_FLOAT"}}}, {"name": "StatefulPartitionedCall/ViT_Lite_Fixed_1/dense_1_1/BiasAdd/ReadVariableOp", "op": "Const", "attr": {"value": {"tensor": {"dtype": "DT_FLOAT", "tensorShape": {"dim": [{"size": "512"}]}}}, "dtype": {"type": "DT_FLOAT"}}}, {"name": "StatefulPartitionedCall/ViT_Lite_Fixed_1/dense_1_1/Gelu/Cast/x", "op": "Const", "attr": {"value": {"tensor": {"dtype": "DT_FLOAT", "tensorShape": {}}}, "dtype": {"type": "DT_FLOAT"}}}, {"name": "StatefulPartitionedCall/ViT_Lite_Fixed_1/dense_2_1/Cast/ReadVariableOp", "op": "Const", "attr": {"value": {"tensor": {"dtype": "DT_FLOAT", "tensorShape": {"dim": [{"size": "512"}, {"size": "256"}]}}}, "dtype": {"type": "DT_FLOAT"}}}, {"name": "StatefulPartitionedCall/ViT_Lite_Fixed_1/dense_2_1/BiasAdd/ReadVariableOp", "op": "Const", "attr": {"value": {"tensor": {"dtype": "DT_FLOAT", "tensorShape": {"dim": [{"size": "256"}]}}}, "dtype": {"type": "DT_FLOAT"}}}, {"name": "StatefulPartitionedCall/ViT_Lite_Fixed_1/multi_head_attention_1/key_1/Reshape", "op": "Const", "attr": {"value": {"tensor": {"dtype": "DT_FLOAT", "tensorShape": {"dim": [{"size": "256"}, {"size": "256"}]}}}, "dtype": {"type": "DT_FLOAT"}}}, {"name": "StatefulPartitionedCall/ViT_Lite_Fixed_1/multi_head_attention_1/key_1/Reshape_1/shape", "op": "Const", "attr": {"value": {"tensor": {"dtype": "DT_INT32", "tensorShape": {"dim": [{"size": "4"}]}}}, "dtype": {"type": "DT_INT32"}}}, {"name": "StatefulPartitionedCall/ViT_Lite_Fixed_1/multi_head_attention_1/key_1/Add/ReadVariableOp", "op": "Const", "attr": {"value": {"tensor": {"dtype": "DT_FLOAT", "tensorShape": {"dim": [{"size": "4"}, {"size": "64"}]}}}, "dtype": {"type": "DT_FLOAT"}}}, {"name": "StatefulPartitionedCall/ViT_Lite_Fixed_1/multi_head_attention_1/transpose/perm", "op": "Const", "attr": {"value": {"tensor": {"dtype": "DT_INT32", "tensorShape": {"dim": [{"size": "4"}]}}}, "dtype": {"type": "DT_INT32"}}}, {"name": "StatefulPartitionedCall/ViT_Lite_Fixed_1/multi_head_attention_1/query_1/Reshape", "op": "Const", "attr": {"value": {"tensor": {"dtype": "DT_FLOAT", "tensorShape": {"dim": [{"size": "256"}, {"size": "256"}]}}}, "dtype": {"type": "DT_FLOAT"}}}, {"name": "StatefulPartitionedCall/ViT_Lite_Fixed_1/multi_head_attention_1/query_1/Reshape_1/shape", "op": "Const", "attr": {"value": {"tensor": {"dtype": "DT_INT32", "tensorShape": {"dim": [{"size": "4"}]}}}, "dtype": {"type": "DT_INT32"}}}, {"name": "StatefulPartitionedCall/ViT_Lite_Fixed_1/multi_head_attention_1/query_1/Add/ReadVariableOp", "op": "Const", "attr": {"value": {"tensor": {"dtype": "DT_FLOAT", "tensorShape": {"dim": [{"size": "4"}, {"size": "64"}]}}}, "dtype": {"type": "DT_FLOAT"}}}, {"name": "StatefulPartitionedCall/ViT_Lite_Fixed_1/multi_head_attention_1/Cast/x", "op": "Const", "attr": {"value": {"tensor": {"dtype": "DT_FLOAT", "tensorShape": {}}}, "dtype": {"type": "DT_FLOAT"}}}, {"name": "StatefulPartitionedCall/ViT_Lite_Fixed_1/multi_head_attention_1/transpose_1/perm", "op": "Const", "attr": {"value": {"tensor": {"dtype": "DT_INT32", "tensorShape": {"dim": [{"size": "4"}]}}}, "dtype": {"type": "DT_INT32"}}}, {"name": "StatefulPartitionedCall/ViT_Lite_Fixed_1/multi_head_attention_1/transpose_2/perm", "op": "Const", "attr": {"value": {"tensor": {"dtype": "DT_INT32", "tensorShape": {"dim": [{"size": "4"}]}}}, "dtype": {"type": "DT_INT32"}}}, {"name": "StatefulPartitionedCall/ViT_Lite_Fixed_1/layer_normalization_1/Reshape_1", "op": "Const", "attr": {"value": {"tensor": {"dtype": "DT_FLOAT", "tensorShape": {"dim": [{"size": "1"}, {"size": "1"}, {"size": "256"}]}}}, "dtype": {"type": "DT_FLOAT"}}}, {"name": "StatefulPartitionedCall/ViT_Lite_Fixed_1/layer_normalization_1/moments/mean/reduction_indices", "op": "Const", "attr": {"value": {"tensor": {"dtype": "DT_INT32", "tensorShape": {"dim": [{"size": "1"}]}}}, "dtype": {"type": "DT_INT32"}}}, {"name": "StatefulPartitionedCall/ViT_Lite_Fixed_1/layer_normalization_1/moments/variance/reduction_indices", "op": "Const", "attr": {"value": {"tensor": {"dtype": "DT_INT32", "tensorShape": {"dim": [{"size": "1"}]}}}, "dtype": {"type": "DT_INT32"}}}, {"name": "StatefulPartitionedCall/ViT_Lite_Fixed_1/layer_normalization_1/add/y", "op": "Const", "attr": {"value": {"tensor": {"dtype": "DT_FLOAT", "tensorShape": {}}}, "dtype": {"type": "DT_FLOAT"}}}, {"name": "StatefulPartitionedCall/ViT_Lite_Fixed_1/layer_normalization_1/Reshape", "op": "Const", "attr": {"value": {"tensor": {"dtype": "DT_FLOAT", "tensorShape": {"dim": [{"size": "1"}, {"size": "1"}, {"size": "256"}]}}}, "dtype": {"type": "DT_FLOAT"}}}, {"name": "StatefulPartitionedCall/ViT_Lite_Fixed_1/multi_head_attention_1/value_1/Reshape", "op": "Const", "attr": {"value": {"tensor": {"dtype": "DT_FLOAT", "tensorShape": {"dim": [{"size": "256"}, {"size": "256"}]}}}, "dtype": {"type": "DT_FLOAT"}}}, {"name": "StatefulPartitionedCall/ViT_Lite_Fixed_1/multi_head_attention_1/value_1/Reshape_1/shape", "op": "Const", "attr": {"value": {"tensor": {"dtype": "DT_INT32", "tensorShape": {"dim": [{"size": "4"}]}}}, "dtype": {"type": "DT_INT32"}}}, {"name": "StatefulPartitionedCall/ViT_Lite_Fixed_1/multi_head_attention_1/value_1/Add/ReadVariableOp", "op": "Const", "attr": {"value": {"tensor": {"dtype": "DT_FLOAT", "tensorShape": {"dim": [{"size": "4"}, {"size": "64"}]}}}, "dtype": {"type": "DT_FLOAT"}}}, {"name": "StatefulPartitionedCall/ViT_Lite_Fixed_1/multi_head_attention_1/transpose_3/perm", "op": "Const", "attr": {"value": {"tensor": {"dtype": "DT_INT32", "tensorShape": {"dim": [{"size": "4"}]}}}, "dtype": {"type": "DT_INT32"}}}, {"name": "StatefulPartitionedCall/ViT_Lite_Fixed_1/multi_head_attention_1/transpose_4/perm", "op": "Const", "attr": {"value": {"tensor": {"dtype": "DT_INT32", "tensorShape": {"dim": [{"size": "4"}]}}}, "dtype": {"type": "DT_INT32"}}}, {"name": "StatefulPartitionedCall/ViT_Lite_Fixed_1/multi_head_attention_1/attention_output_1/Reshape/shape", "op": "Const", "attr": {"value": {"tensor": {"dtype": "DT_INT32", "tensorShape": {"dim": [{"size": "3"}]}}}, "dtype": {"type": "DT_INT32"}}}, {"name": "StatefulPartitionedCall/ViT_Lite_Fixed_1/multi_head_attention_1/attention_output_1/Reshape_1", "op": "Const", "attr": {"value": {"tensor": {"dtype": "DT_FLOAT", "tensorShape": {"dim": [{"size": "256"}, {"size": "256"}]}}}, "dtype": {"type": "DT_FLOAT"}}}, {"name": "StatefulPartitionedCall/ViT_Lite_Fixed_1/multi_head_attention_1/attention_output_1/BiasAdd/ReadVariableOp", "op": "Const", "attr": {"value": {"tensor": {"dtype": "DT_FLOAT", "tensorShape": {"dim": [{"size": "256"}]}}}, "dtype": {"type": "DT_FLOAT"}}}, {"name": "StatefulPartitionedCall/ViT_Lite_Fixed_1/conv2d_1/convolution/ReadVariableOp", "op": "Const", "attr": {"value": {"tensor": {"dtype": "DT_FLOAT", "tensorShape": {"dim": [{"size": "16"}, {"size": "16"}, {"size": "3"}, {"size": "256"}]}}}, "dtype": {"type": "DT_FLOAT"}}}, {"name": "StatefulPartitionedCall/ViT_Lite_Fixed_1/conv2d_1/Squeeze", "op": "Const", "attr": {"value": {"tensor": {"dtype": "DT_FLOAT", "tensorShape": {"dim": [{"size": "256"}]}}}, "dtype": {"type": "DT_FLOAT"}}}, {"name": "StatefulPartitionedCall/ViT_Lite_Fixed_1/reshape_1/strided_slice/stack", "op": "Const", "attr": {"value": {"tensor": {"dtype": "DT_INT32", "tensorShape": {"dim": [{"size": "1"}]}}}, "dtype": {"type": "DT_INT32"}}}, {"name": "StatefulPartitionedCall/ViT_Lite_Fixed_1/reshape_1/strided_slice/stack_1", "op": "Const", "attr": {"value": {"tensor": {"dtype": "DT_INT32", "tensorShape": {"dim": [{"size": "1"}]}}}, "dtype": {"type": "DT_INT32"}}}, {"name": "StatefulPartitionedCall/ViT_Lite_Fixed_1/reshape_1/strided_slice/stack_2", "op": "Const", "attr": {"value": {"tensor": {"dtype": "DT_INT32", "tensorShape": {"dim": [{"size": "1"}]}}}, "dtype": {"type": "DT_INT32"}}}, {"name": "StatefulPartitionedCall/ViT_Lite_Fixed_1/reshape_1/Reshape/shape/1", "op": "Const", "attr": {"value": {"tensor": {"dtype": "DT_INT32", "tensorShape": {}}}, "dtype": {"type": "DT_INT32"}}}, {"name": "StatefulPartitionedCall/ViT_Lite_Fixed_1/reshape_1/Reshape/shape/2", "op": "Const", "attr": {"value": {"tensor": {"dtype": "DT_INT32", "tensorShape": {}}}, "dtype": {"type": "DT_INT32"}}}, {"name": "StatefulPartitionedCall/ViT_Lite_Fixed_1/patch_encoder_1/dense_1/Cast/ReadVariableOp", "op": "Const", "attr": {"value": {"tensor": {"dtype": "DT_FLOAT", "tensorShape": {"dim": [{"size": "256"}, {"size": "256"}]}}}, "dtype": {"type": "DT_FLOAT"}}}, {"name": "StatefulPartitionedCall/ViT_Lite_Fixed_1/patch_encoder_1/dense_1/BiasAdd/ReadVariableOp", "op": "Const", "attr": {"value": {"tensor": {"dtype": "DT_FLOAT", "tensorShape": {"dim": [{"size": "256"}]}}}, "dtype": {"type": "DT_FLOAT"}}}, {"name": "StatefulPartitionedCall/ViT_Lite_Fixed_1/patch_encoder_1/embedding_1/GatherV2", "op": "Const", "attr": {"value": {"tensor": {"dtype": "DT_FLOAT", "tensorShape": {"dim": [{"size": "196"}, {"size": "256"}]}}}, "dtype": {"type": "DT_FLOAT"}}}, {"name": "StatefulPartitionedCall/ViT_Lite_Fixed_1/layer_normalization_8_1/moments/mean/reduction_indices", "op": "Const", "attr": {"value": {"tensor": {"dtype": "DT_INT32", "tensorShape": {"dim": [{"size": "1"}]}}}, "dtype": {"type": "DT_INT32"}}}, {"name": "StatefulPartitionedCall/ViT_Lite_Fixed_1/layer_normalization_8_1/moments/variance/reduction_indices", "op": "Const", "attr": {"value": {"tensor": {"dtype": "DT_INT32", "tensorShape": {"dim": [{"size": "1"}]}}}, "dtype": {"type": "DT_INT32"}}}, {"name": "StatefulPartitionedCall/ViT_Lite_Fixed_1/layer_normalization_8_1/add/y", "op": "Const", "attr": {"value": {"tensor": {"dtype": "DT_FLOAT", "tensorShape": {}}}, "dtype": {"type": "DT_FLOAT"}}}, {"name": "StatefulPartitionedCall/ViT_Lite_Fixed_1/layer_normalization_8_1/Reshape", "op": "Const", "attr": {"value": {"tensor": {"dtype": "DT_FLOAT", "tensorShape": {"dim": [{"size": "1"}, {"size": "1"}, {"size": "256"}]}}}, "dtype": {"type": "DT_FLOAT"}}}, {"name": "StatefulPartitionedCall/ViT_Lite_Fixed_1/global_average_pooling1d_1/Mean/reduction_indices", "op": "Const", "attr": {"value": {"tensor": {"dtype": "DT_INT32", "tensorShape": {}}}, "dtype": {"type": "DT_INT32"}}}, {"name": "StatefulPartitionedCall/ViT_Lite_Fixed_1/dense_9_1/Cast/ReadVariableOp", "op": "Const", "attr": {"value": {"tensor": {"dtype": "DT_FLOAT", "tensorShape": {"dim": [{"size": "256"}, {"size": "256"}]}}}, "dtype": {"type": "DT_FLOAT"}}}, {"name": "StatefulPartitionedCall/ViT_Lite_Fixed_1/dense_9_1/BiasAdd/ReadVariableOp", "op": "Const", "attr": {"value": {"tensor": {"dtype": "DT_FLOAT", "tensorShape": {"dim": [{"size": "256"}]}}}, "dtype": {"type": "DT_FLOAT"}}}, {"name": "StatefulPartitionedCall/ViT_Lite_Fixed_1/dense_10_1/Cast/ReadVariableOp", "op": "Const", "attr": {"value": {"tensor": {"dtype": "DT_FLOAT", "tensorShape": {"dim": [{"size": "256"}, {"size": "2"}]}}}, "dtype": {"type": "DT_FLOAT"}}}, {"name": "StatefulPartitionedCall/ViT_Lite_Fixed_1/dense_10_1/BiasAdd/ReadVariableOp", "op": "Const", "attr": {"value": {"tensor": {"dtype": "DT_FLOAT", "tensorShape": {"dim": [{"size": "2"}]}}}, "dtype": {"type": "DT_FLOAT"}}}, {"name": "input_layer", "op": "Placeholder", "attr": {"shape": {"shape": {"dim": [{"size": "-1"}, {"size": "224"}, {"size": "224"}, {"size": "3"}]}}, "dtype": {"type": "DT_FLOAT"}}}, {"name": "StatefulPartitionedCall/ViT_Lite_Fixed_1/conv2d_1/BiasAdd", "op": "_FusedConv2D", "input": ["input_layer", "StatefulPartitionedCall/ViT_Lite_Fixed_1/conv2d_1/convolution/ReadVariableOp", "StatefulPartitionedCall/ViT_Lite_Fixed_1/conv2d_1/Squeeze"], "device": "/device:CPU:0", "attr": {"num_host_args": {"i": "0"}, "_input_shapes": {"list": {"shape": [{"dim": [{"size": "-3"}, {"size": "-4"}, {"size": "-5"}, {"size": "-6"}]}, {"dim": [{"size": "16"}, {"size": "16"}, {"size": "3"}, {"size": "256"}]}]}}, "filter_format": {"s": "SFdJTw=="}, "data_format": {"s": "TkhXQw=="}, "strides": {"list": {"i": ["1", "16", "16", "1"]}}, "num_args": {"i": "1"}, "fused_ops": {"list": {"s": ["Qmlhc0FkZA=="]}}, "TArgs": {"list": {"type": ["DT_FLOAT"]}}, "padding": {"s": "VkFMSUQ="}, "use_cudnn_on_gpu": {"b": true}, "leakyrelu_alpha": {"f": 0.2}, "epsilon": {"f": 0.0}, "T": {"type": "DT_FLOAT"}, "explicit_paddings": {"list": {}}, "dilations": {"list": {"i": ["1", "1", "1", "1"]}}}}, {"name": "StatefulPartitionedCall/ViT_Lite_Fixed_1/reshape_1/Shape", "op": "Shape", "input": ["StatefulPartitionedCall/ViT_Lite_Fixed_1/conv2d_1/BiasAdd"], "attr": {"T": {"type": "DT_FLOAT"}, "out_type": {"type": "DT_INT32"}}, "experimentalType": {"typeId": "TFT_PRODUCT", "args": [{"typeId": "TFT_SHAPE_TENSOR", "args": [{"typeId": "TFT_INT32"}]}]}}, {"name": "StatefulPartitionedCall/ViT_Lite_Fixed_1/reshape_1/strided_slice", "op": "StridedSlice", "input": ["StatefulPartitionedCall/ViT_Lite_Fixed_1/reshape_1/Shape", "StatefulPartitionedCall/ViT_Lite_Fixed_1/reshape_1/strided_slice/stack", "StatefulPartitionedCall/ViT_Lite_Fixed_1/reshape_1/strided_slice/stack_1", "StatefulPartitionedCall/ViT_Lite_Fixed_1/reshape_1/strided_slice/stack_2"], "attr": {"shrink_axis_mask": {"i": "1"}, "Index": {"type": "DT_INT32"}, "new_axis_mask": {"i": "0"}, "begin_mask": {"i": "0"}, "T": {"type": "DT_INT32"}, "end_mask": {"i": "0"}, "ellipsis_mask": {"i": "0"}}}, {"name": "StatefulPartitionedCall/ViT_Lite_Fixed_1/reshape_1/Reshape/shape", "op": "Pack", "input": ["StatefulPartitionedCall/ViT_Lite_Fixed_1/reshape_1/strided_slice", "StatefulPartitionedCall/ViT_Lite_Fixed_1/reshape_1/Reshape/shape/1", "StatefulPartitionedCall/ViT_Lite_Fixed_1/reshape_1/Reshape/shape/2"], "attr": {"N": {"i": "3"}, "axis": {"i": "0"}, "T": {"type": "DT_INT32"}}}, {"name": "StatefulPartitionedCall/ViT_Lite_Fixed_1/reshape_1/Reshape", "op": "Reshape", "input": ["StatefulPartitionedCall/ViT_Lite_Fixed_1/conv2d_1/BiasAdd", "StatefulPartitionedCall/ViT_Lite_Fixed_1/reshape_1/Reshape/shape"], "attr": {"T": {"type": "DT_FLOAT"}, "Tshape": {"type": "DT_INT32"}}}, {"name": "StatefulPartitionedCall/ViT_Lite_Fixed_1/patch_encoder_1/dense_1/MatMul", "op": "BatchMatMulV2", "input": ["StatefulPartitionedCall/ViT_Lite_Fixed_1/reshape_1/Reshape", "StatefulPartitionedCall/ViT_Lite_Fixed_1/patch_encoder_1/dense_1/Cast/ReadVariableOp"], "attr": {"adj_x": {"b": false}, "grad_y": {"b": false}, "T": {"type": "DT_FLOAT"}, "grad_x": {"b": false}, "adj_y": {"b": false}}}, {"name": "StatefulPartitionedCall/ViT_Lite_Fixed_1/patch_encoder_1/dense_1/BiasAdd", "op": "BiasAdd", "input": ["StatefulPartitionedCall/ViT_Lite_Fixed_1/patch_encoder_1/dense_1/MatMul", "StatefulPartitionedCall/ViT_Lite_Fixed_1/patch_encoder_1/dense_1/BiasAdd/ReadVariableOp"], "attr": {"_input_shapes": {"list": {"shape": [{"dim": [{"size": "-2"}, {"size": "196"}, {"size": "256"}]}, {"dim": [{"size": "256"}]}]}}, "T": {"type": "DT_FLOAT"}, "data_format": {"s": "TkhXQw=="}}}, {"name": "StatefulPartitionedCall/ViT_Lite_Fixed_1/patch_encoder_1/add", "op": "AddV2", "input": ["StatefulPartitionedCall/ViT_Lite_Fixed_1/patch_encoder_1/dense_1/BiasAdd", "StatefulPartitionedCall/ViT_Lite_Fixed_1/patch_encoder_1/embedding_1/GatherV2"], "attr": {"T": {"type": "DT_FLOAT"}}}, {"name": "StatefulPartitionedCall/ViT_Lite_Fixed_1/layer_normalization_1/moments/mean", "op": "Mean", "input": ["StatefulPartitionedCall/ViT_Lite_Fixed_1/patch_encoder_1/add", "StatefulPartitionedCall/ViT_Lite_Fixed_1/layer_normalization_1/moments/mean/reduction_indices"], "attr": {"T": {"type": "DT_FLOAT"}, "Tidx": {"type": "DT_INT32"}, "keep_dims": {"b": true}}}, {"name": "StatefulPartitionedCall/ViT_Lite_Fixed_1/layer_normalization_1/Neg", "op": "Neg", "input": ["StatefulPartitionedCall/ViT_Lite_Fixed_1/layer_normalization_1/moments/mean"], "attr": {"T": {"type": "DT_FLOAT"}}}, {"name": "StatefulPartitionedCall/ViT_Lite_Fixed_1/layer_normalization_1/moments/SquaredDifference", "op": "SquaredDifference", "input": ["StatefulPartitionedCall/ViT_Lite_Fixed_1/patch_encoder_1/add", "StatefulPartitionedCall/ViT_Lite_Fixed_1/layer_normalization_1/moments/mean"], "attr": {"T": {"type": "DT_FLOAT"}}}, {"name": "StatefulPartitionedCall/ViT_Lite_Fixed_1/layer_normalization_1/moments/variance", "op": "Mean", "input": ["StatefulPartitionedCall/ViT_Lite_Fixed_1/layer_normalization_1/moments/SquaredDifference", "StatefulPartitionedCall/ViT_Lite_Fixed_1/layer_normalization_1/moments/variance/reduction_indices"], "attr": {"Tidx": {"type": "DT_INT32"}, "T": {"type": "DT_FLOAT"}, "keep_dims": {"b": true}}}, {"name": "StatefulPartitionedCall/ViT_Lite_Fixed_1/layer_normalization_1/add", "op": "AddV2", "input": ["StatefulPartitionedCall/ViT_Lite_Fixed_1/layer_normalization_1/moments/variance", "StatefulPartitionedCall/ViT_Lite_Fixed_1/layer_normalization_1/add/y"], "attr": {"T": {"type": "DT_FLOAT"}}}, {"name": "StatefulPartitionedCall/ViT_Lite_Fixed_1/layer_normalization_1/Rsqrt", "op": "Rsqrt", "input": ["StatefulPartitionedCall/ViT_Lite_Fixed_1/layer_normalization_1/add"], "attr": {"T": {"type": "DT_FLOAT"}}}, {"name": "StatefulPartitionedCall/ViT_Lite_Fixed_1/layer_normalization_1/mul", "op": "Mul", "input": ["StatefulPartitionedCall/ViT_Lite_Fixed_1/layer_normalization_1/Rsqrt", "StatefulPartitionedCall/ViT_Lite_Fixed_1/layer_normalization_1/Reshape"], "attr": {"T": {"type": "DT_FLOAT"}}}, {"name": "StatefulPartitionedCall/ViT_Lite_Fixed_1/layer_normalization_1/mul_1", "op": "Mul", "input": ["StatefulPartitionedCall/ViT_Lite_Fixed_1/layer_normalization_1/Neg", "StatefulPartitionedCall/ViT_Lite_Fixed_1/layer_normalization_1/mul"], "attr": {"T": {"type": "DT_FLOAT"}}}, {"name": "StatefulPartitionedCall/ViT_Lite_Fixed_1/layer_normalization_1/mul_2", "op": "Mul", "input": ["StatefulPartitionedCall/ViT_Lite_Fixed_1/patch_encoder_1/add", "StatefulPartitionedCall/ViT_Lite_Fixed_1/layer_normalization_1/mul"], "attr": {"T": {"type": "DT_FLOAT"}}}, {"name": "StatefulPartitionedCall/ViT_Lite_Fixed_1/layer_normalization_1/ArithmeticOptimizer/AddOpsRewrite_Leaf_1_add_2", "op": "AddN", "input": ["StatefulPartitionedCall/ViT_Lite_Fixed_1/layer_normalization_1/mul_2", "StatefulPartitionedCall/ViT_Lite_Fixed_1/layer_normalization_1/mul_1"], "attr": {"N": {"i": "2"}, "T": {"type": "DT_FLOAT"}, "_grappler_ArithmeticOptimizer_AddOpsRewriteStage": {"b": true}}}, {"name": "StatefulPartitionedCall/ViT_Lite_Fixed_1/layer_normalization_1/ArithmeticOptimizer/AddOpsRewrite_add_2", "op": "AddV2", "input": ["StatefulPartitionedCall/ViT_Lite_Fixed_1/layer_normalization_1/Reshape_1", "StatefulPartitionedCall/ViT_Lite_Fixed_1/layer_normalization_1/ArithmeticOptimizer/AddOpsRewrite_Leaf_1_add_2"], "attr": {"T": {"type": "DT_FLOAT"}, "_grappler_ArithmeticOptimizer_AddOpsRewriteStage": {"b": true}}}, {"name": "StatefulPartitionedCall/ViT_Lite_Fixed_1/multi_head_attention_1/key_1/MatMul", "op": "BatchMatMulV2", "input": ["StatefulPartitionedCall/ViT_Lite_Fixed_1/layer_normalization_1/ArithmeticOptimizer/AddOpsRewrite_add_2", "StatefulPartitionedCall/ViT_Lite_Fixed_1/multi_head_attention_1/key_1/Reshape"], "attr": {"grad_y": {"b": false}, "adj_x": {"b": false}, "T": {"type": "DT_FLOAT"}, "grad_x": {"b": false}, "adj_y": {"b": false}}}, {"name": "StatefulPartitionedCall/ViT_Lite_Fixed_1/multi_head_attention_1/query_1/MatMul", "op": "BatchMatMulV2", "input": ["StatefulPartitionedCall/ViT_Lite_Fixed_1/layer_normalization_1/ArithmeticOptimizer/AddOpsRewrite_add_2", "StatefulPartitionedCall/ViT_Lite_Fixed_1/multi_head_attention_1/query_1/Reshape"], "attr": {"adj_x": {"b": false}, "grad_y": {"b": false}, "T": {"type": "DT_FLOAT"}, "adj_y": {"b": false}, "grad_x": {"b": false}}}, {"name": "StatefulPartitionedCall/ViT_Lite_Fixed_1/multi_head_attention_1/value_1/MatMul", "op": "BatchMatMulV2", "input": ["StatefulPartitionedCall/ViT_Lite_Fixed_1/layer_normalization_1/ArithmeticOptimizer/AddOpsRewrite_add_2", "StatefulPartitionedCall/ViT_Lite_Fixed_1/multi_head_attention_1/value_1/Reshape"], "attr": {"grad_y": {"b": false}, "adj_x": {"b": false}, "T": {"type": "DT_FLOAT"}, "grad_x": {"b": false}, "adj_y": {"b": false}}}, {"name": "StatefulPartitionedCall/ViT_Lite_Fixed_1/multi_head_attention_1/key_1/Reshape_1", "op": "Reshape", "input": ["StatefulPartitionedCall/ViT_Lite_Fixed_1/multi_head_attention_1/key_1/MatMul", "StatefulPartitionedCall/ViT_Lite_Fixed_1/multi_head_attention_1/key_1/Reshape_1/shape"], "attr": {"T": {"type": "DT_FLOAT"}, "Tshape": {"type": "DT_INT32"}}}, {"name": "StatefulPartitionedCall/ViT_Lite_Fixed_1/multi_head_attention_1/query_1/Reshape_1", "op": "Reshape", "input": ["StatefulPartitionedCall/ViT_Lite_Fixed_1/multi_head_attention_1/query_1/MatMul", "StatefulPartitionedCall/ViT_Lite_Fixed_1/multi_head_attention_1/query_1/Reshape_1/shape"], "attr": {"T": {"type": "DT_FLOAT"}, "Tshape": {"type": "DT_INT32"}}}, {"name": "StatefulPartitionedCall/ViT_Lite_Fixed_1/multi_head_attention_1/value_1/Reshape_1", "op": "Reshape", "input": ["StatefulPartitionedCall/ViT_Lite_Fixed_1/multi_head_attention_1/value_1/MatMul", "StatefulPartitionedCall/ViT_Lite_Fixed_1/multi_head_attention_1/value_1/Reshape_1/shape"], "attr": {"T": {"type": "DT_FLOAT"}, "Tshape": {"type": "DT_INT32"}}}, {"name": "StatefulPartitionedCall/ViT_Lite_Fixed_1/multi_head_attention_1/key_1/Add", "op": "AddV2", "input": ["StatefulPartitionedCall/ViT_Lite_Fixed_1/multi_head_attention_1/key_1/Reshape_1", "StatefulPartitionedCall/ViT_Lite_Fixed_1/multi_head_attention_1/key_1/Add/ReadVariableOp"], "attr": {"T": {"type": "DT_FLOAT"}}}, {"name": "StatefulPartitionedCall/ViT_Lite_Fixed_1/multi_head_attention_1/query_1/Add", "op": "AddV2", "input": ["StatefulPartitionedCall/ViT_Lite_Fixed_1/multi_head_attention_1/query_1/Reshape_1", "StatefulPartitionedCall/ViT_Lite_Fixed_1/multi_head_attention_1/query_1/Add/ReadVariableOp"], "attr": {"T": {"type": "DT_FLOAT"}}}, {"name": "StatefulPartitionedCall/ViT_Lite_Fixed_1/multi_head_attention_1/value_1/Add", "op": "AddV2", "input": ["StatefulPartitionedCall/ViT_Lite_Fixed_1/multi_head_attention_1/value_1/Reshape_1", "StatefulPartitionedCall/ViT_Lite_Fixed_1/multi_head_attention_1/value_1/Add/ReadVariableOp"], "attr": {"T": {"type": "DT_FLOAT"}}}, {"name": "StatefulPartitionedCall/ViT_Lite_Fixed_1/multi_head_attention_1/transpose", "op": "Transpose", "input": ["StatefulPartitionedCall/ViT_Lite_Fixed_1/multi_head_attention_1/key_1/Add", "StatefulPartitionedCall/ViT_Lite_Fixed_1/multi_head_attention_1/transpose/perm"], "attr": {"Tperm": {"type": "DT_INT32"}, "_input_shapes": {"list": {"shape": [{"dim": [{"size": "-2"}, {"size": "196"}, {"size": "4"}, {"size": "64"}]}, {"dim": [{"size": "4"}]}]}}, "T": {"type": "DT_FLOAT"}}}, {"name": "StatefulPartitionedCall/ViT_Lite_Fixed_1/multi_head_attention_1/Mul", "op": "Mul", "input": ["StatefulPartitionedCall/ViT_Lite_Fixed_1/multi_head_attention_1/query_1/Add", "StatefulPartitionedCall/ViT_Lite_Fixed_1/multi_head_attention_1/Cast/x"], "attr": {"T": {"type": "DT_FLOAT"}}}, {"name": "StatefulPartitionedCall/ViT_Lite_Fixed_1/multi_head_attention_1/transpose_3", "op": "Transpose", "input": ["StatefulPartitionedCall/ViT_Lite_Fixed_1/multi_head_attention_1/value_1/Add", "StatefulPartitionedCall/ViT_Lite_Fixed_1/multi_head_attention_1/transpose_3/perm"], "attr": {"Tperm": {"type": "DT_INT32"}, "_input_shapes": {"list": {"shape": [{"dim": [{"size": "-2"}, {"size": "196"}, {"size": "4"}, {"size": "64"}]}, {"dim": [{"size": "4"}]}]}}, "T": {"type": "DT_FLOAT"}}}, {"name": "StatefulPartitionedCall/ViT_Lite_Fixed_1/multi_head_attention_1/transpose_1", "op": "Transpose", "input": ["StatefulPartitionedCall/ViT_Lite_Fixed_1/multi_head_attention_1/Mul", "StatefulPartitionedCall/ViT_Lite_Fixed_1/multi_head_attention_1/transpose_1/perm"], "attr": {"Tperm": {"type": "DT_INT32"}, "_input_shapes": {"list": {"shape": [{"dim": [{"size": "-2"}, {"size": "196"}, {"size": "4"}, {"size": "64"}]}, {"dim": [{"size": "4"}]}]}}, "T": {"type": "DT_FLOAT"}}}, {"name": "StatefulPartitionedCall/ViT_Lite_Fixed_1/multi_head_attention_1/MatMul", "op": "BatchMatMulV2", "input": ["StatefulPartitionedCall/ViT_Lite_Fixed_1/multi_head_attention_1/transpose", "StatefulPartitionedCall/ViT_Lite_Fixed_1/multi_head_attention_1/transpose_1"], "attr": {"grad_y": {"b": false}, "adj_x": {"b": false}, "T": {"type": "DT_FLOAT"}, "adj_y": {"b": false}, "grad_x": {"b": false}}}, {"name": "StatefulPartitionedCall/ViT_Lite_Fixed_1/multi_head_attention_1/transpose_2", "op": "Transpose", "input": ["StatefulPartitionedCall/ViT_Lite_Fixed_1/multi_head_attention_1/MatMul", "StatefulPartitionedCall/ViT_Lite_Fixed_1/multi_head_attention_1/transpose_2/perm"], "attr": {"Tperm": {"type": "DT_INT32"}, "_input_shapes": {"list": {"shape": [{"dim": [{"size": "-2"}, {"size": "4"}, {"size": "196"}, {"size": "196"}]}, {"dim": [{"size": "4"}]}]}}, "T": {"type": "DT_FLOAT"}}}, {"name": "StatefulPartitionedCall/ViT_Lite_Fixed_1/multi_head_attention_1/softmax_1/Softmax", "op": "Softmax", "input": ["StatefulPartitionedCall/ViT_Lite_Fixed_1/multi_head_attention_1/transpose_2"], "attr": {"T": {"type": "DT_FLOAT"}}}, {"name": "StatefulPartitionedCall/ViT_Lite_Fixed_1/multi_head_attention_1/MatMul_1", "op": "BatchMatMulV2", "input": ["StatefulPartitionedCall/ViT_Lite_Fixed_1/multi_head_attention_1/softmax_1/Softmax", "StatefulPartitionedCall/ViT_Lite_Fixed_1/multi_head_attention_1/transpose_3"], "attr": {"grad_y": {"b": false}, "adj_x": {"b": false}, "T": {"type": "DT_FLOAT"}, "grad_x": {"b": false}, "adj_y": {"b": false}}}, {"name": "StatefulPartitionedCall/ViT_Lite_Fixed_1/multi_head_attention_1/transpose_4", "op": "Transpose", "input": ["StatefulPartitionedCall/ViT_Lite_Fixed_1/multi_head_attention_1/MatMul_1", "StatefulPartitionedCall/ViT_Lite_Fixed_1/multi_head_attention_1/transpose_4/perm"], "attr": {"Tperm": {"type": "DT_INT32"}, "_input_shapes": {"list": {"shape": [{"dim": [{"size": "-2"}, {"size": "4"}, {"size": "196"}, {"size": "64"}]}, {"dim": [{"size": "4"}]}]}}, "T": {"type": "DT_FLOAT"}}}, {"name": "StatefulPartitionedCall/ViT_Lite_Fixed_1/multi_head_attention_1/attention_output_1/Reshape", "op": "Reshape", "input": ["StatefulPartitionedCall/ViT_Lite_Fixed_1/multi_head_attention_1/transpose_4", "StatefulPartitionedCall/ViT_Lite_Fixed_1/multi_head_attention_1/attention_output_1/Reshape/shape"], "attr": {"T": {"type": "DT_FLOAT"}, "Tshape": {"type": "DT_INT32"}}}, {"name": "StatefulPartitionedCall/ViT_Lite_Fixed_1/multi_head_attention_1/attention_output_1/MatMul", "op": "BatchMatMulV2", "input": ["StatefulPartitionedCall/ViT_Lite_Fixed_1/multi_head_attention_1/attention_output_1/Reshape", "StatefulPartitionedCall/ViT_Lite_Fixed_1/multi_head_attention_1/attention_output_1/Reshape_1"], "attr": {"adj_x": {"b": false}, "grad_y": {"b": false}, "T": {"type": "DT_FLOAT"}, "grad_x": {"b": false}, "adj_y": {"b": false}}}, {"name": "StatefulPartitionedCall/ViT_Lite_Fixed_1/multi_head_attention_1/attention_output_1/BiasAdd", "op": "BiasAdd", "input": ["StatefulPartitionedCall/ViT_Lite_Fixed_1/multi_head_attention_1/attention_output_1/MatMul", "StatefulPartitionedCall/ViT_Lite_Fixed_1/multi_head_attention_1/attention_output_1/BiasAdd/ReadVariableOp"], "attr": {"_input_shapes": {"list": {"shape": [{"dim": [{"size": "-2"}, {"size": "196"}, {"size": "256"}]}, {"dim": [{"size": "256"}]}]}}, "T": {"type": "DT_FLOAT"}, "data_format": {"s": "TkhXQw=="}}}, {"name": "StatefulPartitionedCall/ViT_Lite_Fixed_1/add_1/Add", "op": "AddV2", "input": ["StatefulPartitionedCall/ViT_Lite_Fixed_1/multi_head_attention_1/attention_output_1/BiasAdd", "StatefulPartitionedCall/ViT_Lite_Fixed_1/patch_encoder_1/add"], "attr": {"T": {"type": "DT_FLOAT"}}}, {"name": "StatefulPartitionedCall/ViT_Lite_Fixed_1/layer_normalization_1_2/moments/mean", "op": "Mean", "input": ["StatefulPartitionedCall/ViT_Lite_Fixed_1/add_1/Add", "StatefulPartitionedCall/ViT_Lite_Fixed_1/layer_normalization_1_2/moments/mean/reduction_indices"], "attr": {"Tidx": {"type": "DT_INT32"}, "T": {"type": "DT_FLOAT"}, "keep_dims": {"b": true}}}, {"name": "StatefulPartitionedCall/ViT_Lite_Fixed_1/layer_normalization_1_2/Neg", "op": "Neg", "input": ["StatefulPartitionedCall/ViT_Lite_Fixed_1/layer_normalization_1_2/moments/mean"], "attr": {"T": {"type": "DT_FLOAT"}}}, {"name": "StatefulPartitionedCall/ViT_Lite_Fixed_1/layer_normalization_1_2/moments/SquaredDifference", "op": "SquaredDifference", "input": ["StatefulPartitionedCall/ViT_Lite_Fixed_1/add_1/Add", "StatefulPartitionedCall/ViT_Lite_Fixed_1/layer_normalization_1_2/moments/mean"], "attr": {"T": {"type": "DT_FLOAT"}}}, {"name": "StatefulPartitionedCall/ViT_Lite_Fixed_1/layer_normalization_1_2/moments/variance", "op": "Mean", "input": ["StatefulPartitionedCall/ViT_Lite_Fixed_1/layer_normalization_1_2/moments/SquaredDifference", "StatefulPartitionedCall/ViT_Lite_Fixed_1/layer_normalization_1_2/moments/variance/reduction_indices"], "attr": {"T": {"type": "DT_FLOAT"}, "Tidx": {"type": "DT_INT32"}, "keep_dims": {"b": true}}}, {"name": "StatefulPartitionedCall/ViT_Lite_Fixed_1/layer_normalization_1_2/add", "op": "AddV2", "input": ["StatefulPartitionedCall/ViT_Lite_Fixed_1/layer_normalization_1_2/moments/variance", "StatefulPartitionedCall/ViT_Lite_Fixed_1/layer_normalization_1_2/add/y"], "attr": {"T": {"type": "DT_FLOAT"}}}, {"name": "StatefulPartitionedCall/ViT_Lite_Fixed_1/layer_normalization_1_2/Rsqrt", "op": "Rsqrt", "input": ["StatefulPartitionedCall/ViT_Lite_Fixed_1/layer_normalization_1_2/add"], "attr": {"T": {"type": "DT_FLOAT"}}}, {"name": "StatefulPartitionedCall/ViT_Lite_Fixed_1/layer_normalization_1_2/mul", "op": "Mul", "input": ["StatefulPartitionedCall/ViT_Lite_Fixed_1/layer_normalization_1_2/Rsqrt", "StatefulPartitionedCall/ViT_Lite_Fixed_1/layer_normalization_1_2/Reshape"], "attr": {"T": {"type": "DT_FLOAT"}}}, {"name": "StatefulPartitionedCall/ViT_Lite_Fixed_1/layer_normalization_1_2/mul_1", "op": "Mul", "input": ["StatefulPartitionedCall/ViT_Lite_Fixed_1/layer_normalization_1_2/Neg", "StatefulPartitionedCall/ViT_Lite_Fixed_1/layer_normalization_1_2/mul"], "attr": {"T": {"type": "DT_FLOAT"}}}, {"name": "StatefulPartitionedCall/ViT_Lite_Fixed_1/layer_normalization_1_2/mul_2", "op": "Mul", "input": ["StatefulPartitionedCall/ViT_Lite_Fixed_1/add_1/Add", "StatefulPartitionedCall/ViT_Lite_Fixed_1/layer_normalization_1_2/mul"], "attr": {"T": {"type": "DT_FLOAT"}}}, {"name": "StatefulPartitionedCall/ViT_Lite_Fixed_1/layer_normalization_1_2/ArithmeticOptimizer/AddOpsRewrite_Leaf_1_add_2", "op": "AddN", "input": ["StatefulPartitionedCall/ViT_Lite_Fixed_1/layer_normalization_1_2/mul_2", "StatefulPartitionedCall/ViT_Lite_Fixed_1/layer_normalization_1_2/mul_1"], "attr": {"N": {"i": "2"}, "T": {"type": "DT_FLOAT"}, "_grappler_ArithmeticOptimizer_AddOpsRewriteStage": {"b": true}}}, {"name": "StatefulPartitionedCall/ViT_Lite_Fixed_1/layer_normalization_1_2/ArithmeticOptimizer/AddOpsRewrite_add_2", "op": "AddV2", "input": ["StatefulPartitionedCall/ViT_Lite_Fixed_1/layer_normalization_1_2/Reshape_1", "StatefulPartitionedCall/ViT_Lite_Fixed_1/layer_normalization_1_2/ArithmeticOptimizer/AddOpsRewrite_Leaf_1_add_2"], "attr": {"T": {"type": "DT_FLOAT"}, "_grappler_ArithmeticOptimizer_AddOpsRewriteStage": {"b": true}}}, {"name": "StatefulPartitionedCall/ViT_Lite_Fixed_1/dense_1_1/MatMul", "op": "BatchMatMulV2", "input": ["StatefulPartitionedCall/ViT_Lite_Fixed_1/layer_normalization_1_2/ArithmeticOptimizer/AddOpsRewrite_add_2", "StatefulPartitionedCall/ViT_Lite_Fixed_1/dense_1_1/Cast/ReadVariableOp"], "attr": {"grad_y": {"b": false}, "adj_x": {"b": false}, "T": {"type": "DT_FLOAT"}, "adj_y": {"b": false}, "grad_x": {"b": false}}}, {"name": "StatefulPartitionedCall/ViT_Lite_Fixed_1/dense_1_1/BiasAdd", "op": "BiasAdd", "input": ["StatefulPartitionedCall/ViT_Lite_Fixed_1/dense_1_1/MatMul", "StatefulPartitionedCall/ViT_Lite_Fixed_1/dense_1_1/BiasAdd/ReadVariableOp"], "attr": {"data_format": {"s": "TkhXQw=="}, "T": {"type": "DT_FLOAT"}, "_input_shapes": {"list": {"shape": [{"dim": [{"size": "-2"}, {"size": "196"}, {"size": "512"}]}, {"dim": [{"size": "512"}]}]}}}}, {"name": "StatefulPartitionedCall/ViT_Lite_Fixed_1/dense_1_1/Gelu/mul", "op": "Mul", "input": ["StatefulPartitionedCall/ViT_Lite_Fixed_1/dense_1_1/Gelu/mul/x", "StatefulPartitionedCall/ViT_Lite_Fixed_1/dense_1_1/BiasAdd"], "attr": {"_grappler_ArithmeticOptimizer_MinimizeBroadcasts": {"b": true}, "T": {"type": "DT_FLOAT"}}}, {"name": "StatefulPartitionedCall/ViT_Lite_Fixed_1/dense_1_1/Gelu/Neg", "op": "Neg", "input": ["StatefulPartitionedCall/ViT_Lite_Fixed_1/dense_1_1/BiasAdd"], "attr": {"T": {"type": "DT_FLOAT"}}}, {"name": "StatefulPartitionedCall/ViT_Lite_Fixed_1/dense_1_1/Gelu/mul_1", "op": "Mul", "input": ["StatefulPartitionedCall/ViT_Lite_Fixed_1/dense_1_1/Gelu/Neg", "StatefulPartitionedCall/ViT_Lite_Fixed_1/dense_1_1/Gelu/Cast/x"], "attr": {"T": {"type": "DT_FLOAT"}}}, {"name": "StatefulPartitionedCall/ViT_Lite_Fixed_1/dense_1_1/Gelu/Erfc", "op": "Erfc", "input": ["StatefulPartitionedCall/ViT_Lite_Fixed_1/dense_1_1/Gelu/mul_1"], "attr": {"T": {"type": "DT_FLOAT"}}}, {"name": "StatefulPartitionedCall/ViT_Lite_Fixed_1/dense_1_1/Gelu/mul_2", "op": "Mul", "input": ["StatefulPartitionedCall/ViT_Lite_Fixed_1/dense_1_1/Gelu/mul", "StatefulPartitionedCall/ViT_Lite_Fixed_1/dense_1_1/Gelu/Erfc"], "attr": {"_grappler_ArithmeticOptimizer_MinimizeBroadcasts": {"b": true}, "T": {"type": "DT_FLOAT"}}}, {"name": "StatefulPartitionedCall/ViT_Lite_Fixed_1/dense_2_1/MatMul", "op": "BatchMatMulV2", "input": ["StatefulPartitionedCall/ViT_Lite_Fixed_1/dense_1_1/Gelu/mul_2", "StatefulPartitionedCall/ViT_Lite_Fixed_1/dense_2_1/Cast/ReadVariableOp"], "attr": {"adj_x": {"b": false}, "grad_y": {"b": false}, "T": {"type": "DT_FLOAT"}, "adj_y": {"b": false}, "grad_x": {"b": false}}}, {"name": "StatefulPartitionedCall/ViT_Lite_Fixed_1/dense_2_1/BiasAdd", "op": "BiasAdd", "input": ["StatefulPartitionedCall/ViT_Lite_Fixed_1/dense_2_1/MatMul", "StatefulPartitionedCall/ViT_Lite_Fixed_1/dense_2_1/BiasAdd/ReadVariableOp"], "attr": {"_input_shapes": {"list": {"shape": [{"dim": [{"size": "-2"}, {"size": "196"}, {"size": "256"}]}, {"dim": [{"size": "256"}]}]}}, "T": {"type": "DT_FLOAT"}, "data_format": {"s": "TkhXQw=="}}}, {"name": "StatefulPartitionedCall/ViT_Lite_Fixed_1/add_1_2/Add", "op": "AddV2", "input": ["StatefulPartitionedCall/ViT_Lite_Fixed_1/dense_2_1/BiasAdd", "StatefulPartitionedCall/ViT_Lite_Fixed_1/add_1/Add"], "attr": {"T": {"type": "DT_FLOAT"}}}, {"name": "StatefulPartitionedCall/ViT_Lite_Fixed_1/layer_normalization_2_1/moments/mean", "op": "Mean", "input": ["StatefulPartitionedCall/ViT_Lite_Fixed_1/add_1_2/Add", "StatefulPartitionedCall/ViT_Lite_Fixed_1/layer_normalization_2_1/moments/mean/reduction_indices"], "attr": {"T": {"type": "DT_FLOAT"}, "Tidx": {"type": "DT_INT32"}, "keep_dims": {"b": true}}}, {"name": "StatefulPartitionedCall/ViT_Lite_Fixed_1/layer_normalization_2_1/Neg", "op": "Neg", "input": ["StatefulPartitionedCall/ViT_Lite_Fixed_1/layer_normalization_2_1/moments/mean"], "attr": {"T": {"type": "DT_FLOAT"}}}, {"name": "StatefulPartitionedCall/ViT_Lite_Fixed_1/layer_normalization_2_1/moments/SquaredDifference", "op": "SquaredDifference", "input": ["StatefulPartitionedCall/ViT_Lite_Fixed_1/add_1_2/Add", "StatefulPartitionedCall/ViT_Lite_Fixed_1/layer_normalization_2_1/moments/mean"], "attr": {"T": {"type": "DT_FLOAT"}}}, {"name": "StatefulPartitionedCall/ViT_Lite_Fixed_1/layer_normalization_2_1/moments/variance", "op": "Mean", "input": ["StatefulPartitionedCall/ViT_Lite_Fixed_1/layer_normalization_2_1/moments/SquaredDifference", "StatefulPartitionedCall/ViT_Lite_Fixed_1/layer_normalization_2_1/moments/variance/reduction_indices"], "attr": {"Tidx": {"type": "DT_INT32"}, "T": {"type": "DT_FLOAT"}, "keep_dims": {"b": true}}}, {"name": "StatefulPartitionedCall/ViT_Lite_Fixed_1/layer_normalization_2_1/add", "op": "AddV2", "input": ["StatefulPartitionedCall/ViT_Lite_Fixed_1/layer_normalization_2_1/moments/variance", "StatefulPartitionedCall/ViT_Lite_Fixed_1/layer_normalization_2_1/add/y"], "attr": {"T": {"type": "DT_FLOAT"}}}, {"name": "StatefulPartitionedCall/ViT_Lite_Fixed_1/layer_normalization_2_1/Rsqrt", "op": "Rsqrt", "input": ["StatefulPartitionedCall/ViT_Lite_Fixed_1/layer_normalization_2_1/add"], "attr": {"T": {"type": "DT_FLOAT"}}}, {"name": "StatefulPartitionedCall/ViT_Lite_Fixed_1/layer_normalization_2_1/mul", "op": "Mul", "input": ["StatefulPartitionedCall/ViT_Lite_Fixed_1/layer_normalization_2_1/Rsqrt", "StatefulPartitionedCall/ViT_Lite_Fixed_1/layer_normalization_2_1/Reshape"], "attr": {"T": {"type": "DT_FLOAT"}}}, {"name": "StatefulPartitionedCall/ViT_Lite_Fixed_1/layer_normalization_2_1/mul_1", "op": "Mul", "input": ["StatefulPartitionedCall/ViT_Lite_Fixed_1/layer_normalization_2_1/Neg", "StatefulPartitionedCall/ViT_Lite_Fixed_1/layer_normalization_2_1/mul"], "attr": {"T": {"type": "DT_FLOAT"}}}, {"name": "StatefulPartitionedCall/ViT_Lite_Fixed_1/layer_normalization_2_1/mul_2", "op": "Mul", "input": ["StatefulPartitionedCall/ViT_Lite_Fixed_1/add_1_2/Add", "StatefulPartitionedCall/ViT_Lite_Fixed_1/layer_normalization_2_1/mul"], "attr": {"T": {"type": "DT_FLOAT"}}}, {"name": "StatefulPartitionedCall/ViT_Lite_Fixed_1/layer_normalization_2_1/ArithmeticOptimizer/AddOpsRewrite_Leaf_1_add_2", "op": "AddN", "input": ["StatefulPartitionedCall/ViT_Lite_Fixed_1/layer_normalization_2_1/mul_2", "StatefulPartitionedCall/ViT_Lite_Fixed_1/layer_normalization_2_1/mul_1"], "attr": {"N": {"i": "2"}, "T": {"type": "DT_FLOAT"}, "_grappler_ArithmeticOptimizer_AddOpsRewriteStage": {"b": true}}}, {"name": "StatefulPartitionedCall/ViT_Lite_Fixed_1/layer_normalization_2_1/ArithmeticOptimizer/AddOpsRewrite_add_2", "op": "AddV2", "input": ["StatefulPartitionedCall/ViT_Lite_Fixed_1/layer_normalization_2_1/Reshape_1", "StatefulPartitionedCall/ViT_Lite_Fixed_1/layer_normalization_2_1/ArithmeticOptimizer/AddOpsRewrite_Leaf_1_add_2"], "attr": {"T": {"type": "DT_FLOAT"}, "_grappler_ArithmeticOptimizer_AddOpsRewriteStage": {"b": true}}}, {"name": "StatefulPartitionedCall/ViT_Lite_Fixed_1/multi_head_attention_1_2/key_1/MatMul", "op": "BatchMatMulV2", "input": ["StatefulPartitionedCall/ViT_Lite_Fixed_1/layer_normalization_2_1/ArithmeticOptimizer/AddOpsRewrite_add_2", "StatefulPartitionedCall/ViT_Lite_Fixed_1/multi_head_attention_1_2/key_1/Reshape"], "attr": {"adj_x": {"b": false}, "grad_y": {"b": false}, "T": {"type": "DT_FLOAT"}, "grad_x": {"b": false}, "adj_y": {"b": false}}}, {"name": "StatefulPartitionedCall/ViT_Lite_Fixed_1/multi_head_attention_1_2/query_1/MatMul", "op": "BatchMatMulV2", "input": ["StatefulPartitionedCall/ViT_Lite_Fixed_1/layer_normalization_2_1/ArithmeticOptimizer/AddOpsRewrite_add_2", "StatefulPartitionedCall/ViT_Lite_Fixed_1/multi_head_attention_1_2/query_1/Reshape"], "attr": {"adj_x": {"b": false}, "grad_y": {"b": false}, "T": {"type": "DT_FLOAT"}, "grad_x": {"b": false}, "adj_y": {"b": false}}}, {"name": "StatefulPartitionedCall/ViT_Lite_Fixed_1/multi_head_attention_1_2/value_1/MatMul", "op": "BatchMatMulV2", "input": ["StatefulPartitionedCall/ViT_Lite_Fixed_1/layer_normalization_2_1/ArithmeticOptimizer/AddOpsRewrite_add_2", "StatefulPartitionedCall/ViT_Lite_Fixed_1/multi_head_attention_1_2/value_1/Reshape"], "attr": {"adj_x": {"b": false}, "grad_y": {"b": false}, "T": {"type": "DT_FLOAT"}, "grad_x": {"b": false}, "adj_y": {"b": false}}}, {"name": "StatefulPartitionedCall/ViT_Lite_Fixed_1/multi_head_attention_1_2/key_1/Reshape_1", "op": "Reshape", "input": ["StatefulPartitionedCall/ViT_Lite_Fixed_1/multi_head_attention_1_2/key_1/MatMul", "StatefulPartitionedCall/ViT_Lite_Fixed_1/multi_head_attention_1_2/key_1/Reshape_1/shape"], "attr": {"T": {"type": "DT_FLOAT"}, "Tshape": {"type": "DT_INT32"}}}, {"name": "StatefulPartitionedCall/ViT_Lite_Fixed_1/multi_head_attention_1_2/query_1/Reshape_1", "op": "Reshape", "input": ["StatefulPartitionedCall/ViT_Lite_Fixed_1/multi_head_attention_1_2/query_1/MatMul", "StatefulPartitionedCall/ViT_Lite_Fixed_1/multi_head_attention_1_2/query_1/Reshape_1/shape"], "attr": {"T": {"type": "DT_FLOAT"}, "Tshape": {"type": "DT_INT32"}}}, {"name": "StatefulPartitionedCall/ViT_Lite_Fixed_1/multi_head_attention_1_2/value_1/Reshape_1", "op": "Reshape", "input": ["StatefulPartitionedCall/ViT_Lite_Fixed_1/multi_head_attention_1_2/value_1/MatMul", "StatefulPartitionedCall/ViT_Lite_Fixed_1/multi_head_attention_1_2/value_1/Reshape_1/shape"], "attr": {"T": {"type": "DT_FLOAT"}, "Tshape": {"type": "DT_INT32"}}}, {"name": "StatefulPartitionedCall/ViT_Lite_Fixed_1/multi_head_attention_1_2/key_1/Add", "op": "AddV2", "input": ["StatefulPartitionedCall/ViT_Lite_Fixed_1/multi_head_attention_1_2/key_1/Reshape_1", "StatefulPartitionedCall/ViT_Lite_Fixed_1/multi_head_attention_1_2/key_1/Add/ReadVariableOp"], "attr": {"T": {"type": "DT_FLOAT"}}}, {"name": "StatefulPartitionedCall/ViT_Lite_Fixed_1/multi_head_attention_1_2/query_1/Add", "op": "AddV2", "input": ["StatefulPartitionedCall/ViT_Lite_Fixed_1/multi_head_attention_1_2/query_1/Reshape_1", "StatefulPartitionedCall/ViT_Lite_Fixed_1/multi_head_attention_1_2/query_1/Add/ReadVariableOp"], "attr": {"T": {"type": "DT_FLOAT"}}}, {"name": "StatefulPartitionedCall/ViT_Lite_Fixed_1/multi_head_attention_1_2/value_1/Add", "op": "AddV2", "input": ["StatefulPartitionedCall/ViT_Lite_Fixed_1/multi_head_attention_1_2/value_1/Reshape_1", "StatefulPartitionedCall/ViT_Lite_Fixed_1/multi_head_attention_1_2/value_1/Add/ReadVariableOp"], "attr": {"T": {"type": "DT_FLOAT"}}}, {"name": "StatefulPartitionedCall/ViT_Lite_Fixed_1/multi_head_attention_1_2/transpose", "op": "Transpose", "input": ["StatefulPartitionedCall/ViT_Lite_Fixed_1/multi_head_attention_1_2/key_1/Add", "StatefulPartitionedCall/ViT_Lite_Fixed_1/multi_head_attention_1_2/transpose/perm"], "attr": {"Tperm": {"type": "DT_INT32"}, "_input_shapes": {"list": {"shape": [{"dim": [{"size": "-2"}, {"size": "196"}, {"size": "4"}, {"size": "64"}]}, {"dim": [{"size": "4"}]}]}}, "T": {"type": "DT_FLOAT"}}}, {"name": "StatefulPartitionedCall/ViT_Lite_Fixed_1/multi_head_attention_1_2/Mul", "op": "Mul", "input": ["StatefulPartitionedCall/ViT_Lite_Fixed_1/multi_head_attention_1_2/query_1/Add", "StatefulPartitionedCall/ViT_Lite_Fixed_1/multi_head_attention_1_2/Cast/x"], "attr": {"T": {"type": "DT_FLOAT"}}}, {"name": "StatefulPartitionedCall/ViT_Lite_Fixed_1/multi_head_attention_1_2/transpose_3", "op": "Transpose", "input": ["StatefulPartitionedCall/ViT_Lite_Fixed_1/multi_head_attention_1_2/value_1/Add", "StatefulPartitionedCall/ViT_Lite_Fixed_1/multi_head_attention_1_2/transpose_3/perm"], "attr": {"Tperm": {"type": "DT_INT32"}, "_input_shapes": {"list": {"shape": [{"dim": [{"size": "-2"}, {"size": "196"}, {"size": "4"}, {"size": "64"}]}, {"dim": [{"size": "4"}]}]}}, "T": {"type": "DT_FLOAT"}}}, {"name": "StatefulPartitionedCall/ViT_Lite_Fixed_1/multi_head_attention_1_2/transpose_1", "op": "Transpose", "input": ["StatefulPartitionedCall/ViT_Lite_Fixed_1/multi_head_attention_1_2/Mul", "StatefulPartitionedCall/ViT_Lite_Fixed_1/multi_head_attention_1_2/transpose_1/perm"], "attr": {"Tperm": {"type": "DT_INT32"}, "_input_shapes": {"list": {"shape": [{"dim": [{"size": "-2"}, {"size": "196"}, {"size": "4"}, {"size": "64"}]}, {"dim": [{"size": "4"}]}]}}, "T": {"type": "DT_FLOAT"}}}, {"name": "StatefulPartitionedCall/ViT_Lite_Fixed_1/multi_head_attention_1_2/MatMul", "op": "BatchMatMulV2", "input": ["StatefulPartitionedCall/ViT_Lite_Fixed_1/multi_head_attention_1_2/transpose", "StatefulPartitionedCall/ViT_Lite_Fixed_1/multi_head_attention_1_2/transpose_1"], "attr": {"adj_x": {"b": false}, "grad_y": {"b": false}, "T": {"type": "DT_FLOAT"}, "grad_x": {"b": false}, "adj_y": {"b": false}}}, {"name": "StatefulPartitionedCall/ViT_Lite_Fixed_1/multi_head_attention_1_2/transpose_2", "op": "Transpose", "input": ["StatefulPartitionedCall/ViT_Lite_Fixed_1/multi_head_attention_1_2/MatMul", "StatefulPartitionedCall/ViT_Lite_Fixed_1/multi_head_attention_1_2/transpose_2/perm"], "attr": {"Tperm": {"type": "DT_INT32"}, "_input_shapes": {"list": {"shape": [{"dim": [{"size": "-2"}, {"size": "4"}, {"size": "196"}, {"size": "196"}]}, {"dim": [{"size": "4"}]}]}}, "T": {"type": "DT_FLOAT"}}}, {"name": "StatefulPartitionedCall/ViT_Lite_Fixed_1/multi_head_attention_1_2/softmax_1_1/Softmax", "op": "Softmax", "input": ["StatefulPartitionedCall/ViT_Lite_Fixed_1/multi_head_attention_1_2/transpose_2"], "attr": {"T": {"type": "DT_FLOAT"}}}, {"name": "StatefulPartitionedCall/ViT_Lite_Fixed_1/multi_head_attention_1_2/MatMul_1", "op": "BatchMatMulV2", "input": ["StatefulPartitionedCall/ViT_Lite_Fixed_1/multi_head_attention_1_2/softmax_1_1/Softmax", "StatefulPartitionedCall/ViT_Lite_Fixed_1/multi_head_attention_1_2/transpose_3"], "attr": {"adj_x": {"b": false}, "grad_y": {"b": false}, "T": {"type": "DT_FLOAT"}, "grad_x": {"b": false}, "adj_y": {"b": false}}}, {"name": "StatefulPartitionedCall/ViT_Lite_Fixed_1/multi_head_attention_1_2/transpose_4", "op": "Transpose", "input": ["StatefulPartitionedCall/ViT_Lite_Fixed_1/multi_head_attention_1_2/MatMul_1", "StatefulPartitionedCall/ViT_Lite_Fixed_1/multi_head_attention_1_2/transpose_4/perm"], "attr": {"Tperm": {"type": "DT_INT32"}, "_input_shapes": {"list": {"shape": [{"dim": [{"size": "-2"}, {"size": "4"}, {"size": "196"}, {"size": "64"}]}, {"dim": [{"size": "4"}]}]}}, "T": {"type": "DT_FLOAT"}}}, {"name": "StatefulPartitionedCall/ViT_Lite_Fixed_1/multi_head_attention_1_2/attention_output_1/Reshape", "op": "Reshape", "input": ["StatefulPartitionedCall/ViT_Lite_Fixed_1/multi_head_attention_1_2/transpose_4", "StatefulPartitionedCall/ViT_Lite_Fixed_1/multi_head_attention_1_2/attention_output_1/Reshape/shape"], "attr": {"T": {"type": "DT_FLOAT"}, "Tshape": {"type": "DT_INT32"}}}, {"name": "StatefulPartitionedCall/ViT_Lite_Fixed_1/multi_head_attention_1_2/attention_output_1/MatMul", "op": "BatchMatMulV2", "input": ["StatefulPartitionedCall/ViT_Lite_Fixed_1/multi_head_attention_1_2/attention_output_1/Reshape", "StatefulPartitionedCall/ViT_Lite_Fixed_1/multi_head_attention_1_2/attention_output_1/Reshape_1"], "attr": {"adj_x": {"b": false}, "grad_y": {"b": false}, "T": {"type": "DT_FLOAT"}, "grad_x": {"b": false}, "adj_y": {"b": false}}}, {"name": "StatefulPartitionedCall/ViT_Lite_Fixed_1/multi_head_attention_1_2/attention_output_1/BiasAdd", "op": "BiasAdd", "input": ["StatefulPartitionedCall/ViT_Lite_Fixed_1/multi_head_attention_1_2/attention_output_1/MatMul", "StatefulPartitionedCall/ViT_Lite_Fixed_1/multi_head_attention_1_2/attention_output_1/BiasAdd/ReadVariableOp"], "attr": {"data_format": {"s": "TkhXQw=="}, "T": {"type": "DT_FLOAT"}, "_input_shapes": {"list": {"shape": [{"dim": [{"size": "-2"}, {"size": "196"}, {"size": "256"}]}, {"dim": [{"size": "256"}]}]}}}}, {"name": "StatefulPartitionedCall/ViT_Lite_Fixed_1/add_2_1/Add", "op": "AddV2", "input": ["StatefulPartitionedCall/ViT_Lite_Fixed_1/multi_head_attention_1_2/attention_output_1/BiasAdd", "StatefulPartitionedCall/ViT_Lite_Fixed_1/add_1_2/Add"], "attr": {"T": {"type": "DT_FLOAT"}}}, {"name": "StatefulPartitionedCall/ViT_Lite_Fixed_1/layer_normalization_3_1/moments/mean", "op": "Mean", "input": ["StatefulPartitionedCall/ViT_Lite_Fixed_1/add_2_1/Add", "StatefulPartitionedCall/ViT_Lite_Fixed_1/layer_normalization_3_1/moments/mean/reduction_indices"], "attr": {"Tidx": {"type": "DT_INT32"}, "T": {"type": "DT_FLOAT"}, "keep_dims": {"b": true}}}, {"name": "StatefulPartitionedCall/ViT_Lite_Fixed_1/layer_normalization_3_1/Neg", "op": "Neg", "input": ["StatefulPartitionedCall/ViT_Lite_Fixed_1/layer_normalization_3_1/moments/mean"], "attr": {"T": {"type": "DT_FLOAT"}}}, {"name": "StatefulPartitionedCall/ViT_Lite_Fixed_1/layer_normalization_3_1/moments/SquaredDifference", "op": "SquaredDifference", "input": ["StatefulPartitionedCall/ViT_Lite_Fixed_1/add_2_1/Add", "StatefulPartitionedCall/ViT_Lite_Fixed_1/layer_normalization_3_1/moments/mean"], "attr": {"T": {"type": "DT_FLOAT"}}}, {"name": "StatefulPartitionedCall/ViT_Lite_Fixed_1/layer_normalization_3_1/moments/variance", "op": "Mean", "input": ["StatefulPartitionedCall/ViT_Lite_Fixed_1/layer_normalization_3_1/moments/SquaredDifference", "StatefulPartitionedCall/ViT_Lite_Fixed_1/layer_normalization_3_1/moments/variance/reduction_indices"], "attr": {"T": {"type": "DT_FLOAT"}, "Tidx": {"type": "DT_INT32"}, "keep_dims": {"b": true}}}, {"name": "StatefulPartitionedCall/ViT_Lite_Fixed_1/layer_normalization_3_1/add", "op": "AddV2", "input": ["StatefulPartitionedCall/ViT_Lite_Fixed_1/layer_normalization_3_1/moments/variance", "StatefulPartitionedCall/ViT_Lite_Fixed_1/layer_normalization_3_1/add/y"], "attr": {"T": {"type": "DT_FLOAT"}}}, {"name": "StatefulPartitionedCall/ViT_Lite_Fixed_1/layer_normalization_3_1/Rsqrt", "op": "Rsqrt", "input": ["StatefulPartitionedCall/ViT_Lite_Fixed_1/layer_normalization_3_1/add"], "attr": {"T": {"type": "DT_FLOAT"}}}, {"name": "StatefulPartitionedCall/ViT_Lite_Fixed_1/layer_normalization_3_1/mul", "op": "Mul", "input": ["StatefulPartitionedCall/ViT_Lite_Fixed_1/layer_normalization_3_1/Rsqrt", "StatefulPartitionedCall/ViT_Lite_Fixed_1/layer_normalization_3_1/Reshape"], "attr": {"T": {"type": "DT_FLOAT"}}}, {"name": "StatefulPartitionedCall/ViT_Lite_Fixed_1/layer_normalization_3_1/mul_1", "op": "Mul", "input": ["StatefulPartitionedCall/ViT_Lite_Fixed_1/layer_normalization_3_1/Neg", "StatefulPartitionedCall/ViT_Lite_Fixed_1/layer_normalization_3_1/mul"], "attr": {"T": {"type": "DT_FLOAT"}}}, {"name": "StatefulPartitionedCall/ViT_Lite_Fixed_1/layer_normalization_3_1/mul_2", "op": "Mul", "input": ["StatefulPartitionedCall/ViT_Lite_Fixed_1/add_2_1/Add", "StatefulPartitionedCall/ViT_Lite_Fixed_1/layer_normalization_3_1/mul"], "attr": {"T": {"type": "DT_FLOAT"}}}, {"name": "StatefulPartitionedCall/ViT_Lite_Fixed_1/layer_normalization_3_1/ArithmeticOptimizer/AddOpsRewrite_Leaf_1_add_2", "op": "AddN", "input": ["StatefulPartitionedCall/ViT_Lite_Fixed_1/layer_normalization_3_1/mul_2", "StatefulPartitionedCall/ViT_Lite_Fixed_1/layer_normalization_3_1/mul_1"], "attr": {"N": {"i": "2"}, "T": {"type": "DT_FLOAT"}, "_grappler_ArithmeticOptimizer_AddOpsRewriteStage": {"b": true}}}, {"name": "StatefulPartitionedCall/ViT_Lite_Fixed_1/layer_normalization_3_1/ArithmeticOptimizer/AddOpsRewrite_add_2", "op": "AddV2", "input": ["StatefulPartitionedCall/ViT_Lite_Fixed_1/layer_normalization_3_1/Reshape_1", "StatefulPartitionedCall/ViT_Lite_Fixed_1/layer_normalization_3_1/ArithmeticOptimizer/AddOpsRewrite_Leaf_1_add_2"], "attr": {"T": {"type": "DT_FLOAT"}, "_grappler_ArithmeticOptimizer_AddOpsRewriteStage": {"b": true}}}, {"name": "StatefulPartitionedCall/ViT_Lite_Fixed_1/dense_3_1/MatMul", "op": "BatchMatMulV2", "input": ["StatefulPartitionedCall/ViT_Lite_Fixed_1/layer_normalization_3_1/ArithmeticOptimizer/AddOpsRewrite_add_2", "StatefulPartitionedCall/ViT_Lite_Fixed_1/dense_3_1/Cast/ReadVariableOp"], "attr": {"adj_x": {"b": false}, "grad_y": {"b": false}, "T": {"type": "DT_FLOAT"}, "adj_y": {"b": false}, "grad_x": {"b": false}}}, {"name": "StatefulPartitionedCall/ViT_Lite_Fixed_1/dense_3_1/BiasAdd", "op": "BiasAdd", "input": ["StatefulPartitionedCall/ViT_Lite_Fixed_1/dense_3_1/MatMul", "StatefulPartitionedCall/ViT_Lite_Fixed_1/dense_3_1/BiasAdd/ReadVariableOp"], "attr": {"data_format": {"s": "TkhXQw=="}, "T": {"type": "DT_FLOAT"}, "_input_shapes": {"list": {"shape": [{"dim": [{"size": "-2"}, {"size": "196"}, {"size": "512"}]}, {"dim": [{"size": "512"}]}]}}}}, {"name": "StatefulPartitionedCall/ViT_Lite_Fixed_1/dense_3_1/Gelu/mul", "op": "Mul", "input": ["StatefulPartitionedCall/ViT_Lite_Fixed_1/dense_3_1/Gelu/mul/x", "StatefulPartitionedCall/ViT_Lite_Fixed_1/dense_3_1/BiasAdd"], "attr": {"_grappler_ArithmeticOptimizer_MinimizeBroadcasts": {"b": true}, "T": {"type": "DT_FLOAT"}}}, {"name": "StatefulPartitionedCall/ViT_Lite_Fixed_1/dense_3_1/Gelu/Neg", "op": "Neg", "input": ["StatefulPartitionedCall/ViT_Lite_Fixed_1/dense_3_1/BiasAdd"], "attr": {"T": {"type": "DT_FLOAT"}}}, {"name": "StatefulPartitionedCall/ViT_Lite_Fixed_1/dense_3_1/Gelu/mul_1", "op": "Mul", "input": ["StatefulPartitionedCall/ViT_Lite_Fixed_1/dense_3_1/Gelu/Neg", "StatefulPartitionedCall/ViT_Lite_Fixed_1/dense_3_1/Gelu/Cast/x"], "attr": {"T": {"type": "DT_FLOAT"}}}, {"name": "StatefulPartitionedCall/ViT_Lite_Fixed_1/dense_3_1/Gelu/Erfc", "op": "Erfc", "input": ["StatefulPartitionedCall/ViT_Lite_Fixed_1/dense_3_1/Gelu/mul_1"], "attr": {"T": {"type": "DT_FLOAT"}}}, {"name": "StatefulPartitionedCall/ViT_Lite_Fixed_1/dense_3_1/Gelu/mul_2", "op": "Mul", "input": ["StatefulPartitionedCall/ViT_Lite_Fixed_1/dense_3_1/Gelu/mul", "StatefulPartitionedCall/ViT_Lite_Fixed_1/dense_3_1/Gelu/Erfc"], "attr": {"_grappler_ArithmeticOptimizer_MinimizeBroadcasts": {"b": true}, "T": {"type": "DT_FLOAT"}}}, {"name": "StatefulPartitionedCall/ViT_Lite_Fixed_1/dense_4_1/MatMul", "op": "BatchMatMulV2", "input": ["StatefulPartitionedCall/ViT_Lite_Fixed_1/dense_3_1/Gelu/mul_2", "StatefulPartitionedCall/ViT_Lite_Fixed_1/dense_4_1/Cast/ReadVariableOp"], "attr": {"grad_y": {"b": false}, "adj_x": {"b": false}, "T": {"type": "DT_FLOAT"}, "grad_x": {"b": false}, "adj_y": {"b": false}}}, {"name": "StatefulPartitionedCall/ViT_Lite_Fixed_1/dense_4_1/BiasAdd", "op": "BiasAdd", "input": ["StatefulPartitionedCall/ViT_Lite_Fixed_1/dense_4_1/MatMul", "StatefulPartitionedCall/ViT_Lite_Fixed_1/dense_4_1/BiasAdd/ReadVariableOp"], "attr": {"_input_shapes": {"list": {"shape": [{"dim": [{"size": "-2"}, {"size": "196"}, {"size": "256"}]}, {"dim": [{"size": "256"}]}]}}, "T": {"type": "DT_FLOAT"}, "data_format": {"s": "TkhXQw=="}}}, {"name": "StatefulPartitionedCall/ViT_Lite_Fixed_1/add_3_1/Add", "op": "AddV2", "input": ["StatefulPartitionedCall/ViT_Lite_Fixed_1/dense_4_1/BiasAdd", "StatefulPartitionedCall/ViT_Lite_Fixed_1/add_2_1/Add"], "attr": {"T": {"type": "DT_FLOAT"}}}, {"name": "StatefulPartitionedCall/ViT_Lite_Fixed_1/layer_normalization_4_1/moments/mean", "op": "Mean", "input": ["StatefulPartitionedCall/ViT_Lite_Fixed_1/add_3_1/Add", "StatefulPartitionedCall/ViT_Lite_Fixed_1/layer_normalization_4_1/moments/mean/reduction_indices"], "attr": {"T": {"type": "DT_FLOAT"}, "Tidx": {"type": "DT_INT32"}, "keep_dims": {"b": true}}}, {"name": "StatefulPartitionedCall/ViT_Lite_Fixed_1/layer_normalization_4_1/Neg", "op": "Neg", "input": ["StatefulPartitionedCall/ViT_Lite_Fixed_1/layer_normalization_4_1/moments/mean"], "attr": {"T": {"type": "DT_FLOAT"}}}, {"name": "StatefulPartitionedCall/ViT_Lite_Fixed_1/layer_normalization_4_1/moments/SquaredDifference", "op": "SquaredDifference", "input": ["StatefulPartitionedCall/ViT_Lite_Fixed_1/add_3_1/Add", "StatefulPartitionedCall/ViT_Lite_Fixed_1/layer_normalization_4_1/moments/mean"], "attr": {"T": {"type": "DT_FLOAT"}}}, {"name": "StatefulPartitionedCall/ViT_Lite_Fixed_1/layer_normalization_4_1/moments/variance", "op": "Mean", "input": ["StatefulPartitionedCall/ViT_Lite_Fixed_1/layer_normalization_4_1/moments/SquaredDifference", "StatefulPartitionedCall/ViT_Lite_Fixed_1/layer_normalization_4_1/moments/variance/reduction_indices"], "attr": {"T": {"type": "DT_FLOAT"}, "Tidx": {"type": "DT_INT32"}, "keep_dims": {"b": true}}}, {"name": "StatefulPartitionedCall/ViT_Lite_Fixed_1/layer_normalization_4_1/add", "op": "AddV2", "input": ["StatefulPartitionedCall/ViT_Lite_Fixed_1/layer_normalization_4_1/moments/variance", "StatefulPartitionedCall/ViT_Lite_Fixed_1/layer_normalization_4_1/add/y"], "attr": {"T": {"type": "DT_FLOAT"}}}, {"name": "StatefulPartitionedCall/ViT_Lite_Fixed_1/layer_normalization_4_1/Rsqrt", "op": "Rsqrt", "input": ["StatefulPartitionedCall/ViT_Lite_Fixed_1/layer_normalization_4_1/add"], "attr": {"T": {"type": "DT_FLOAT"}}}, {"name": "StatefulPartitionedCall/ViT_Lite_Fixed_1/layer_normalization_4_1/mul", "op": "Mul", "input": ["StatefulPartitionedCall/ViT_Lite_Fixed_1/layer_normalization_4_1/Rsqrt", "StatefulPartitionedCall/ViT_Lite_Fixed_1/layer_normalization_4_1/Reshape"], "attr": {"T": {"type": "DT_FLOAT"}}}, {"name": "StatefulPartitionedCall/ViT_Lite_Fixed_1/layer_normalization_4_1/mul_1", "op": "Mul", "input": ["StatefulPartitionedCall/ViT_Lite_Fixed_1/layer_normalization_4_1/Neg", "StatefulPartitionedCall/ViT_Lite_Fixed_1/layer_normalization_4_1/mul"], "attr": {"T": {"type": "DT_FLOAT"}}}, {"name": "StatefulPartitionedCall/ViT_Lite_Fixed_1/layer_normalization_4_1/mul_2", "op": "Mul", "input": ["StatefulPartitionedCall/ViT_Lite_Fixed_1/add_3_1/Add", "StatefulPartitionedCall/ViT_Lite_Fixed_1/layer_normalization_4_1/mul"], "attr": {"T": {"type": "DT_FLOAT"}}}, {"name": "StatefulPartitionedCall/ViT_Lite_Fixed_1/layer_normalization_4_1/ArithmeticOptimizer/AddOpsRewrite_Leaf_1_add_2", "op": "AddN", "input": ["StatefulPartitionedCall/ViT_Lite_Fixed_1/layer_normalization_4_1/mul_2", "StatefulPartitionedCall/ViT_Lite_Fixed_1/layer_normalization_4_1/mul_1"], "attr": {"N": {"i": "2"}, "T": {"type": "DT_FLOAT"}, "_grappler_ArithmeticOptimizer_AddOpsRewriteStage": {"b": true}}}, {"name": "StatefulPartitionedCall/ViT_Lite_Fixed_1/layer_normalization_4_1/ArithmeticOptimizer/AddOpsRewrite_add_2", "op": "AddV2", "input": ["StatefulPartitionedCall/ViT_Lite_Fixed_1/layer_normalization_4_1/Reshape_1", "StatefulPartitionedCall/ViT_Lite_Fixed_1/layer_normalization_4_1/ArithmeticOptimizer/AddOpsRewrite_Leaf_1_add_2"], "attr": {"T": {"type": "DT_FLOAT"}, "_grappler_ArithmeticOptimizer_AddOpsRewriteStage": {"b": true}}}, {"name": "StatefulPartitionedCall/ViT_Lite_Fixed_1/multi_head_attention_2_1/key_1/MatMul", "op": "BatchMatMulV2", "input": ["StatefulPartitionedCall/ViT_Lite_Fixed_1/layer_normalization_4_1/ArithmeticOptimizer/AddOpsRewrite_add_2", "StatefulPartitionedCall/ViT_Lite_Fixed_1/multi_head_attention_2_1/key_1/Reshape"], "attr": {"adj_x": {"b": false}, "grad_y": {"b": false}, "T": {"type": "DT_FLOAT"}, "grad_x": {"b": false}, "adj_y": {"b": false}}}, {"name": "StatefulPartitionedCall/ViT_Lite_Fixed_1/multi_head_attention_2_1/query_1/MatMul", "op": "BatchMatMulV2", "input": ["StatefulPartitionedCall/ViT_Lite_Fixed_1/layer_normalization_4_1/ArithmeticOptimizer/AddOpsRewrite_add_2", "StatefulPartitionedCall/ViT_Lite_Fixed_1/multi_head_attention_2_1/query_1/Reshape"], "attr": {"grad_y": {"b": false}, "adj_x": {"b": false}, "T": {"type": "DT_FLOAT"}, "grad_x": {"b": false}, "adj_y": {"b": false}}}, {"name": "StatefulPartitionedCall/ViT_Lite_Fixed_1/multi_head_attention_2_1/value_1/MatMul", "op": "BatchMatMulV2", "input": ["StatefulPartitionedCall/ViT_Lite_Fixed_1/layer_normalization_4_1/ArithmeticOptimizer/AddOpsRewrite_add_2", "StatefulPartitionedCall/ViT_Lite_Fixed_1/multi_head_attention_2_1/value_1/Reshape"], "attr": {"grad_y": {"b": false}, "adj_x": {"b": false}, "T": {"type": "DT_FLOAT"}, "grad_x": {"b": false}, "adj_y": {"b": false}}}, {"name": "StatefulPartitionedCall/ViT_Lite_Fixed_1/multi_head_attention_2_1/key_1/Reshape_1", "op": "Reshape", "input": ["StatefulPartitionedCall/ViT_Lite_Fixed_1/multi_head_attention_2_1/key_1/MatMul", "StatefulPartitionedCall/ViT_Lite_Fixed_1/multi_head_attention_2_1/key_1/Reshape_1/shape"], "attr": {"T": {"type": "DT_FLOAT"}, "Tshape": {"type": "DT_INT32"}}}, {"name": "StatefulPartitionedCall/ViT_Lite_Fixed_1/multi_head_attention_2_1/query_1/Reshape_1", "op": "Reshape", "input": ["StatefulPartitionedCall/ViT_Lite_Fixed_1/multi_head_attention_2_1/query_1/MatMul", "StatefulPartitionedCall/ViT_Lite_Fixed_1/multi_head_attention_2_1/query_1/Reshape_1/shape"], "attr": {"T": {"type": "DT_FLOAT"}, "Tshape": {"type": "DT_INT32"}}}, {"name": "StatefulPartitionedCall/ViT_Lite_Fixed_1/multi_head_attention_2_1/value_1/Reshape_1", "op": "Reshape", "input": ["StatefulPartitionedCall/ViT_Lite_Fixed_1/multi_head_attention_2_1/value_1/MatMul", "StatefulPartitionedCall/ViT_Lite_Fixed_1/multi_head_attention_2_1/value_1/Reshape_1/shape"], "attr": {"T": {"type": "DT_FLOAT"}, "Tshape": {"type": "DT_INT32"}}}, {"name": "StatefulPartitionedCall/ViT_Lite_Fixed_1/multi_head_attention_2_1/key_1/Add", "op": "AddV2", "input": ["StatefulPartitionedCall/ViT_Lite_Fixed_1/multi_head_attention_2_1/key_1/Reshape_1", "StatefulPartitionedCall/ViT_Lite_Fixed_1/multi_head_attention_2_1/key_1/Add/ReadVariableOp"], "attr": {"T": {"type": "DT_FLOAT"}}}, {"name": "StatefulPartitionedCall/ViT_Lite_Fixed_1/multi_head_attention_2_1/query_1/Add", "op": "AddV2", "input": ["StatefulPartitionedCall/ViT_Lite_Fixed_1/multi_head_attention_2_1/query_1/Reshape_1", "StatefulPartitionedCall/ViT_Lite_Fixed_1/multi_head_attention_2_1/query_1/Add/ReadVariableOp"], "attr": {"T": {"type": "DT_FLOAT"}}}, {"name": "StatefulPartitionedCall/ViT_Lite_Fixed_1/multi_head_attention_2_1/value_1/Add", "op": "AddV2", "input": ["StatefulPartitionedCall/ViT_Lite_Fixed_1/multi_head_attention_2_1/value_1/Reshape_1", "StatefulPartitionedCall/ViT_Lite_Fixed_1/multi_head_attention_2_1/value_1/Add/ReadVariableOp"], "attr": {"T": {"type": "DT_FLOAT"}}}, {"name": "StatefulPartitionedCall/ViT_Lite_Fixed_1/multi_head_attention_2_1/transpose", "op": "Transpose", "input": ["StatefulPartitionedCall/ViT_Lite_Fixed_1/multi_head_attention_2_1/key_1/Add", "StatefulPartitionedCall/ViT_Lite_Fixed_1/multi_head_attention_2_1/transpose/perm"], "attr": {"Tperm": {"type": "DT_INT32"}, "_input_shapes": {"list": {"shape": [{"dim": [{"size": "-2"}, {"size": "196"}, {"size": "4"}, {"size": "64"}]}, {"dim": [{"size": "4"}]}]}}, "T": {"type": "DT_FLOAT"}}}, {"name": "StatefulPartitionedCall/ViT_Lite_Fixed_1/multi_head_attention_2_1/Mul", "op": "Mul", "input": ["StatefulPartitionedCall/ViT_Lite_Fixed_1/multi_head_attention_2_1/query_1/Add", "StatefulPartitionedCall/ViT_Lite_Fixed_1/multi_head_attention_2_1/Cast/x"], "attr": {"T": {"type": "DT_FLOAT"}}}, {"name": "StatefulPartitionedCall/ViT_Lite_Fixed_1/multi_head_attention_2_1/transpose_3", "op": "Transpose", "input": ["StatefulPartitionedCall/ViT_Lite_Fixed_1/multi_head_attention_2_1/value_1/Add", "StatefulPartitionedCall/ViT_Lite_Fixed_1/multi_head_attention_2_1/transpose_3/perm"], "attr": {"Tperm": {"type": "DT_INT32"}, "_input_shapes": {"list": {"shape": [{"dim": [{"size": "-2"}, {"size": "196"}, {"size": "4"}, {"size": "64"}]}, {"dim": [{"size": "4"}]}]}}, "T": {"type": "DT_FLOAT"}}}, {"name": "StatefulPartitionedCall/ViT_Lite_Fixed_1/multi_head_attention_2_1/transpose_1", "op": "Transpose", "input": ["StatefulPartitionedCall/ViT_Lite_Fixed_1/multi_head_attention_2_1/Mul", "StatefulPartitionedCall/ViT_Lite_Fixed_1/multi_head_attention_2_1/transpose_1/perm"], "attr": {"Tperm": {"type": "DT_INT32"}, "_input_shapes": {"list": {"shape": [{"dim": [{"size": "-2"}, {"size": "196"}, {"size": "4"}, {"size": "64"}]}, {"dim": [{"size": "4"}]}]}}, "T": {"type": "DT_FLOAT"}}}, {"name": "StatefulPartitionedCall/ViT_Lite_Fixed_1/multi_head_attention_2_1/MatMul", "op": "BatchMatMulV2", "input": ["StatefulPartitionedCall/ViT_Lite_Fixed_1/multi_head_attention_2_1/transpose", "StatefulPartitionedCall/ViT_Lite_Fixed_1/multi_head_attention_2_1/transpose_1"], "attr": {"adj_x": {"b": false}, "grad_y": {"b": false}, "T": {"type": "DT_FLOAT"}, "adj_y": {"b": false}, "grad_x": {"b": false}}}, {"name": "StatefulPartitionedCall/ViT_Lite_Fixed_1/multi_head_attention_2_1/transpose_2", "op": "Transpose", "input": ["StatefulPartitionedCall/ViT_Lite_Fixed_1/multi_head_attention_2_1/MatMul", "StatefulPartitionedCall/ViT_Lite_Fixed_1/multi_head_attention_2_1/transpose_2/perm"], "attr": {"Tperm": {"type": "DT_INT32"}, "_input_shapes": {"list": {"shape": [{"dim": [{"size": "-2"}, {"size": "4"}, {"size": "196"}, {"size": "196"}]}, {"dim": [{"size": "4"}]}]}}, "T": {"type": "DT_FLOAT"}}}, {"name": "StatefulPartitionedCall/ViT_Lite_Fixed_1/multi_head_attention_2_1/softmax_2_1/Softmax", "op": "Softmax", "input": ["StatefulPartitionedCall/ViT_Lite_Fixed_1/multi_head_attention_2_1/transpose_2"], "attr": {"T": {"type": "DT_FLOAT"}}}, {"name": "StatefulPartitionedCall/ViT_Lite_Fixed_1/multi_head_attention_2_1/MatMul_1", "op": "BatchMatMulV2", "input": ["StatefulPartitionedCall/ViT_Lite_Fixed_1/multi_head_attention_2_1/softmax_2_1/Softmax", "StatefulPartitionedCall/ViT_Lite_Fixed_1/multi_head_attention_2_1/transpose_3"], "attr": {"adj_x": {"b": false}, "grad_y": {"b": false}, "T": {"type": "DT_FLOAT"}, "grad_x": {"b": false}, "adj_y": {"b": false}}}, {"name": "StatefulPartitionedCall/ViT_Lite_Fixed_1/multi_head_attention_2_1/transpose_4", "op": "Transpose", "input": ["StatefulPartitionedCall/ViT_Lite_Fixed_1/multi_head_attention_2_1/MatMul_1", "StatefulPartitionedCall/ViT_Lite_Fixed_1/multi_head_attention_2_1/transpose_4/perm"], "attr": {"Tperm": {"type": "DT_INT32"}, "_input_shapes": {"list": {"shape": [{"dim": [{"size": "-2"}, {"size": "4"}, {"size": "196"}, {"size": "64"}]}, {"dim": [{"size": "4"}]}]}}, "T": {"type": "DT_FLOAT"}}}, {"name": "StatefulPartitionedCall/ViT_Lite_Fixed_1/multi_head_attention_2_1/attention_output_1/Reshape", "op": "Reshape", "input": ["StatefulPartitionedCall/ViT_Lite_Fixed_1/multi_head_attention_2_1/transpose_4", "StatefulPartitionedCall/ViT_Lite_Fixed_1/multi_head_attention_2_1/attention_output_1/Reshape/shape"], "attr": {"T": {"type": "DT_FLOAT"}, "Tshape": {"type": "DT_INT32"}}}, {"name": "StatefulPartitionedCall/ViT_Lite_Fixed_1/multi_head_attention_2_1/attention_output_1/MatMul", "op": "BatchMatMulV2", "input": ["StatefulPartitionedCall/ViT_Lite_Fixed_1/multi_head_attention_2_1/attention_output_1/Reshape", "StatefulPartitionedCall/ViT_Lite_Fixed_1/multi_head_attention_2_1/attention_output_1/Reshape_1"], "attr": {"grad_y": {"b": false}, "adj_x": {"b": false}, "T": {"type": "DT_FLOAT"}, "grad_x": {"b": false}, "adj_y": {"b": false}}}, {"name": "StatefulPartitionedCall/ViT_Lite_Fixed_1/multi_head_attention_2_1/attention_output_1/BiasAdd", "op": "BiasAdd", "input": ["StatefulPartitionedCall/ViT_Lite_Fixed_1/multi_head_attention_2_1/attention_output_1/MatMul", "StatefulPartitionedCall/ViT_Lite_Fixed_1/multi_head_attention_2_1/attention_output_1/BiasAdd/ReadVariableOp"], "attr": {"data_format": {"s": "TkhXQw=="}, "T": {"type": "DT_FLOAT"}, "_input_shapes": {"list": {"shape": [{"dim": [{"size": "-2"}, {"size": "196"}, {"size": "256"}]}, {"dim": [{"size": "256"}]}]}}}}, {"name": "StatefulPartitionedCall/ViT_Lite_Fixed_1/add_4_1/Add", "op": "AddV2", "input": ["StatefulPartitionedCall/ViT_Lite_Fixed_1/multi_head_attention_2_1/attention_output_1/BiasAdd", "StatefulPartitionedCall/ViT_Lite_Fixed_1/add_3_1/Add"], "attr": {"T": {"type": "DT_FLOAT"}}}, {"name": "StatefulPartitionedCall/ViT_Lite_Fixed_1/layer_normalization_5_1/moments/mean", "op": "Mean", "input": ["StatefulPartitionedCall/ViT_Lite_Fixed_1/add_4_1/Add", "StatefulPartitionedCall/ViT_Lite_Fixed_1/layer_normalization_5_1/moments/mean/reduction_indices"], "attr": {"T": {"type": "DT_FLOAT"}, "Tidx": {"type": "DT_INT32"}, "keep_dims": {"b": true}}}, {"name": "StatefulPartitionedCall/ViT_Lite_Fixed_1/layer_normalization_5_1/Neg", "op": "Neg", "input": ["StatefulPartitionedCall/ViT_Lite_Fixed_1/layer_normalization_5_1/moments/mean"], "attr": {"T": {"type": "DT_FLOAT"}}}, {"name": "StatefulPartitionedCall/ViT_Lite_Fixed_1/layer_normalization_5_1/moments/SquaredDifference", "op": "SquaredDifference", "input": ["StatefulPartitionedCall/ViT_Lite_Fixed_1/add_4_1/Add", "StatefulPartitionedCall/ViT_Lite_Fixed_1/layer_normalization_5_1/moments/mean"], "attr": {"T": {"type": "DT_FLOAT"}}}, {"name": "StatefulPartitionedCall/ViT_Lite_Fixed_1/layer_normalization_5_1/moments/variance", "op": "Mean", "input": ["StatefulPartitionedCall/ViT_Lite_Fixed_1/layer_normalization_5_1/moments/SquaredDifference", "StatefulPartitionedCall/ViT_Lite_Fixed_1/layer_normalization_5_1/moments/variance/reduction_indices"], "attr": {"T": {"type": "DT_FLOAT"}, "Tidx": {"type": "DT_INT32"}, "keep_dims": {"b": true}}}, {"name": "StatefulPartitionedCall/ViT_Lite_Fixed_1/layer_normalization_5_1/add", "op": "AddV2", "input": ["StatefulPartitionedCall/ViT_Lite_Fixed_1/layer_normalization_5_1/moments/variance", "StatefulPartitionedCall/ViT_Lite_Fixed_1/layer_normalization_5_1/add/y"], "attr": {"T": {"type": "DT_FLOAT"}}}, {"name": "StatefulPartitionedCall/ViT_Lite_Fixed_1/layer_normalization_5_1/Rsqrt", "op": "Rsqrt", "input": ["StatefulPartitionedCall/ViT_Lite_Fixed_1/layer_normalization_5_1/add"], "attr": {"T": {"type": "DT_FLOAT"}}}, {"name": "StatefulPartitionedCall/ViT_Lite_Fixed_1/layer_normalization_5_1/mul", "op": "Mul", "input": ["StatefulPartitionedCall/ViT_Lite_Fixed_1/layer_normalization_5_1/Rsqrt", "StatefulPartitionedCall/ViT_Lite_Fixed_1/layer_normalization_5_1/Reshape"], "attr": {"T": {"type": "DT_FLOAT"}}}, {"name": "StatefulPartitionedCall/ViT_Lite_Fixed_1/layer_normalization_5_1/mul_1", "op": "Mul", "input": ["StatefulPartitionedCall/ViT_Lite_Fixed_1/layer_normalization_5_1/Neg", "StatefulPartitionedCall/ViT_Lite_Fixed_1/layer_normalization_5_1/mul"], "attr": {"T": {"type": "DT_FLOAT"}}}, {"name": "StatefulPartitionedCall/ViT_Lite_Fixed_1/layer_normalization_5_1/mul_2", "op": "Mul", "input": ["StatefulPartitionedCall/ViT_Lite_Fixed_1/add_4_1/Add", "StatefulPartitionedCall/ViT_Lite_Fixed_1/layer_normalization_5_1/mul"], "attr": {"T": {"type": "DT_FLOAT"}}}, {"name": "StatefulPartitionedCall/ViT_Lite_Fixed_1/layer_normalization_5_1/ArithmeticOptimizer/AddOpsRewrite_Leaf_1_add_2", "op": "AddN", "input": ["StatefulPartitionedCall/ViT_Lite_Fixed_1/layer_normalization_5_1/mul_2", "StatefulPartitionedCall/ViT_Lite_Fixed_1/layer_normalization_5_1/mul_1"], "attr": {"N": {"i": "2"}, "T": {"type": "DT_FLOAT"}, "_grappler_ArithmeticOptimizer_AddOpsRewriteStage": {"b": true}}}, {"name": "StatefulPartitionedCall/ViT_Lite_Fixed_1/layer_normalization_5_1/ArithmeticOptimizer/AddOpsRewrite_add_2", "op": "AddV2", "input": ["StatefulPartitionedCall/ViT_Lite_Fixed_1/layer_normalization_5_1/Reshape_1", "StatefulPartitionedCall/ViT_Lite_Fixed_1/layer_normalization_5_1/ArithmeticOptimizer/AddOpsRewrite_Leaf_1_add_2"], "attr": {"T": {"type": "DT_FLOAT"}, "_grappler_ArithmeticOptimizer_AddOpsRewriteStage": {"b": true}}}, {"name": "StatefulPartitionedCall/ViT_Lite_Fixed_1/dense_5_1/MatMul", "op": "BatchMatMulV2", "input": ["StatefulPartitionedCall/ViT_Lite_Fixed_1/layer_normalization_5_1/ArithmeticOptimizer/AddOpsRewrite_add_2", "StatefulPartitionedCall/ViT_Lite_Fixed_1/dense_5_1/Cast/ReadVariableOp"], "attr": {"adj_x": {"b": false}, "grad_y": {"b": false}, "T": {"type": "DT_FLOAT"}, "adj_y": {"b": false}, "grad_x": {"b": false}}}, {"name": "StatefulPartitionedCall/ViT_Lite_Fixed_1/dense_5_1/BiasAdd", "op": "BiasAdd", "input": ["StatefulPartitionedCall/ViT_Lite_Fixed_1/dense_5_1/MatMul", "StatefulPartitionedCall/ViT_Lite_Fixed_1/dense_5_1/BiasAdd/ReadVariableOp"], "attr": {"data_format": {"s": "TkhXQw=="}, "T": {"type": "DT_FLOAT"}, "_input_shapes": {"list": {"shape": [{"dim": [{"size": "-2"}, {"size": "196"}, {"size": "512"}]}, {"dim": [{"size": "512"}]}]}}}}, {"name": "StatefulPartitionedCall/ViT_Lite_Fixed_1/dense_5_1/Gelu/mul", "op": "Mul", "input": ["StatefulPartitionedCall/ViT_Lite_Fixed_1/dense_5_1/Gelu/mul/x", "StatefulPartitionedCall/ViT_Lite_Fixed_1/dense_5_1/BiasAdd"], "attr": {"_grappler_ArithmeticOptimizer_MinimizeBroadcasts": {"b": true}, "T": {"type": "DT_FLOAT"}}}, {"name": "StatefulPartitionedCall/ViT_Lite_Fixed_1/dense_5_1/Gelu/Neg", "op": "Neg", "input": ["StatefulPartitionedCall/ViT_Lite_Fixed_1/dense_5_1/BiasAdd"], "attr": {"T": {"type": "DT_FLOAT"}}}, {"name": "StatefulPartitionedCall/ViT_Lite_Fixed_1/dense_5_1/Gelu/mul_1", "op": "Mul", "input": ["StatefulPartitionedCall/ViT_Lite_Fixed_1/dense_5_1/Gelu/Neg", "StatefulPartitionedCall/ViT_Lite_Fixed_1/dense_5_1/Gelu/Cast/x"], "attr": {"T": {"type": "DT_FLOAT"}}}, {"name": "StatefulPartitionedCall/ViT_Lite_Fixed_1/dense_5_1/Gelu/Erfc", "op": "Erfc", "input": ["StatefulPartitionedCall/ViT_Lite_Fixed_1/dense_5_1/Gelu/mul_1"], "attr": {"T": {"type": "DT_FLOAT"}}}, {"name": "StatefulPartitionedCall/ViT_Lite_Fixed_1/dense_5_1/Gelu/mul_2", "op": "Mul", "input": ["StatefulPartitionedCall/ViT_Lite_Fixed_1/dense_5_1/Gelu/mul", "StatefulPartitionedCall/ViT_Lite_Fixed_1/dense_5_1/Gelu/Erfc"], "attr": {"_grappler_ArithmeticOptimizer_MinimizeBroadcasts": {"b": true}, "T": {"type": "DT_FLOAT"}}}, {"name": "StatefulPartitionedCall/ViT_Lite_Fixed_1/dense_6_1/MatMul", "op": "BatchMatMulV2", "input": ["StatefulPartitionedCall/ViT_Lite_Fixed_1/dense_5_1/Gelu/mul_2", "StatefulPartitionedCall/ViT_Lite_Fixed_1/dense_6_1/Cast/ReadVariableOp"], "attr": {"adj_x": {"b": false}, "grad_y": {"b": false}, "T": {"type": "DT_FLOAT"}, "grad_x": {"b": false}, "adj_y": {"b": false}}}, {"name": "StatefulPartitionedCall/ViT_Lite_Fixed_1/dense_6_1/BiasAdd", "op": "BiasAdd", "input": ["StatefulPartitionedCall/ViT_Lite_Fixed_1/dense_6_1/MatMul", "StatefulPartitionedCall/ViT_Lite_Fixed_1/dense_6_1/BiasAdd/ReadVariableOp"], "attr": {"_input_shapes": {"list": {"shape": [{"dim": [{"size": "-2"}, {"size": "196"}, {"size": "256"}]}, {"dim": [{"size": "256"}]}]}}, "T": {"type": "DT_FLOAT"}, "data_format": {"s": "TkhXQw=="}}}, {"name": "StatefulPartitionedCall/ViT_Lite_Fixed_1/add_5_1/Add", "op": "AddV2", "input": ["StatefulPartitionedCall/ViT_Lite_Fixed_1/dense_6_1/BiasAdd", "StatefulPartitionedCall/ViT_Lite_Fixed_1/add_4_1/Add"], "attr": {"T": {"type": "DT_FLOAT"}}}, {"name": "StatefulPartitionedCall/ViT_Lite_Fixed_1/layer_normalization_6_1/moments/mean", "op": "Mean", "input": ["StatefulPartitionedCall/ViT_Lite_Fixed_1/add_5_1/Add", "StatefulPartitionedCall/ViT_Lite_Fixed_1/layer_normalization_6_1/moments/mean/reduction_indices"], "attr": {"T": {"type": "DT_FLOAT"}, "Tidx": {"type": "DT_INT32"}, "keep_dims": {"b": true}}}, {"name": "StatefulPartitionedCall/ViT_Lite_Fixed_1/layer_normalization_6_1/Neg", "op": "Neg", "input": ["StatefulPartitionedCall/ViT_Lite_Fixed_1/layer_normalization_6_1/moments/mean"], "attr": {"T": {"type": "DT_FLOAT"}}}, {"name": "StatefulPartitionedCall/ViT_Lite_Fixed_1/layer_normalization_6_1/moments/SquaredDifference", "op": "SquaredDifference", "input": ["StatefulPartitionedCall/ViT_Lite_Fixed_1/add_5_1/Add", "StatefulPartitionedCall/ViT_Lite_Fixed_1/layer_normalization_6_1/moments/mean"], "attr": {"T": {"type": "DT_FLOAT"}}}, {"name": "StatefulPartitionedCall/ViT_Lite_Fixed_1/layer_normalization_6_1/moments/variance", "op": "Mean", "input": ["StatefulPartitionedCall/ViT_Lite_Fixed_1/layer_normalization_6_1/moments/SquaredDifference", "StatefulPartitionedCall/ViT_Lite_Fixed_1/layer_normalization_6_1/moments/variance/reduction_indices"], "attr": {"T": {"type": "DT_FLOAT"}, "Tidx": {"type": "DT_INT32"}, "keep_dims": {"b": true}}}, {"name": "StatefulPartitionedCall/ViT_Lite_Fixed_1/layer_normalization_6_1/add", "op": "AddV2", "input": ["StatefulPartitionedCall/ViT_Lite_Fixed_1/layer_normalization_6_1/moments/variance", "StatefulPartitionedCall/ViT_Lite_Fixed_1/layer_normalization_6_1/add/y"], "attr": {"T": {"type": "DT_FLOAT"}}}, {"name": "StatefulPartitionedCall/ViT_Lite_Fixed_1/layer_normalization_6_1/Rsqrt", "op": "Rsqrt", "input": ["StatefulPartitionedCall/ViT_Lite_Fixed_1/layer_normalization_6_1/add"], "attr": {"T": {"type": "DT_FLOAT"}}}, {"name": "StatefulPartitionedCall/ViT_Lite_Fixed_1/layer_normalization_6_1/mul", "op": "Mul", "input": ["StatefulPartitionedCall/ViT_Lite_Fixed_1/layer_normalization_6_1/Rsqrt", "StatefulPartitionedCall/ViT_Lite_Fixed_1/layer_normalization_6_1/Reshape"], "attr": {"T": {"type": "DT_FLOAT"}}}, {"name": "StatefulPartitionedCall/ViT_Lite_Fixed_1/layer_normalization_6_1/mul_1", "op": "Mul", "input": ["StatefulPartitionedCall/ViT_Lite_Fixed_1/layer_normalization_6_1/Neg", "StatefulPartitionedCall/ViT_Lite_Fixed_1/layer_normalization_6_1/mul"], "attr": {"T": {"type": "DT_FLOAT"}}}, {"name": "StatefulPartitionedCall/ViT_Lite_Fixed_1/layer_normalization_6_1/mul_2", "op": "Mul", "input": ["StatefulPartitionedCall/ViT_Lite_Fixed_1/add_5_1/Add", "StatefulPartitionedCall/ViT_Lite_Fixed_1/layer_normalization_6_1/mul"], "attr": {"T": {"type": "DT_FLOAT"}}}, {"name": "StatefulPartitionedCall/ViT_Lite_Fixed_1/layer_normalization_6_1/ArithmeticOptimizer/AddOpsRewrite_Leaf_1_add_2", "op": "AddN", "input": ["StatefulPartitionedCall/ViT_Lite_Fixed_1/layer_normalization_6_1/mul_2", "StatefulPartitionedCall/ViT_Lite_Fixed_1/layer_normalization_6_1/mul_1"], "attr": {"N": {"i": "2"}, "T": {"type": "DT_FLOAT"}, "_grappler_ArithmeticOptimizer_AddOpsRewriteStage": {"b": true}}}, {"name": "StatefulPartitionedCall/ViT_Lite_Fixed_1/layer_normalization_6_1/ArithmeticOptimizer/AddOpsRewrite_add_2", "op": "AddV2", "input": ["StatefulPartitionedCall/ViT_Lite_Fixed_1/layer_normalization_6_1/Reshape_1", "StatefulPartitionedCall/ViT_Lite_Fixed_1/layer_normalization_6_1/ArithmeticOptimizer/AddOpsRewrite_Leaf_1_add_2"], "attr": {"T": {"type": "DT_FLOAT"}, "_grappler_ArithmeticOptimizer_AddOpsRewriteStage": {"b": true}}}, {"name": "StatefulPartitionedCall/ViT_Lite_Fixed_1/multi_head_attention_3_1/key_1/MatMul", "op": "BatchMatMulV2", "input": ["StatefulPartitionedCall/ViT_Lite_Fixed_1/layer_normalization_6_1/ArithmeticOptimizer/AddOpsRewrite_add_2", "StatefulPartitionedCall/ViT_Lite_Fixed_1/multi_head_attention_3_1/key_1/Reshape"], "attr": {"adj_x": {"b": false}, "grad_y": {"b": false}, "T": {"type": "DT_FLOAT"}, "adj_y": {"b": false}, "grad_x": {"b": false}}}, {"name": "StatefulPartitionedCall/ViT_Lite_Fixed_1/multi_head_attention_3_1/query_1/MatMul", "op": "BatchMatMulV2", "input": ["StatefulPartitionedCall/ViT_Lite_Fixed_1/layer_normalization_6_1/ArithmeticOptimizer/AddOpsRewrite_add_2", "StatefulPartitionedCall/ViT_Lite_Fixed_1/multi_head_attention_3_1/query_1/Reshape"], "attr": {"adj_x": {"b": false}, "grad_y": {"b": false}, "T": {"type": "DT_FLOAT"}, "adj_y": {"b": false}, "grad_x": {"b": false}}}, {"name": "StatefulPartitionedCall/ViT_Lite_Fixed_1/multi_head_attention_3_1/value_1/MatMul", "op": "BatchMatMulV2", "input": ["StatefulPartitionedCall/ViT_Lite_Fixed_1/layer_normalization_6_1/ArithmeticOptimizer/AddOpsRewrite_add_2", "StatefulPartitionedCall/ViT_Lite_Fixed_1/multi_head_attention_3_1/value_1/Reshape"], "attr": {"adj_x": {"b": false}, "grad_y": {"b": false}, "T": {"type": "DT_FLOAT"}, "grad_x": {"b": false}, "adj_y": {"b": false}}}, {"name": "StatefulPartitionedCall/ViT_Lite_Fixed_1/multi_head_attention_3_1/key_1/Reshape_1", "op": "Reshape", "input": ["StatefulPartitionedCall/ViT_Lite_Fixed_1/multi_head_attention_3_1/key_1/MatMul", "StatefulPartitionedCall/ViT_Lite_Fixed_1/multi_head_attention_3_1/key_1/Reshape_1/shape"], "attr": {"T": {"type": "DT_FLOAT"}, "Tshape": {"type": "DT_INT32"}}}, {"name": "StatefulPartitionedCall/ViT_Lite_Fixed_1/multi_head_attention_3_1/query_1/Reshape_1", "op": "Reshape", "input": ["StatefulPartitionedCall/ViT_Lite_Fixed_1/multi_head_attention_3_1/query_1/MatMul", "StatefulPartitionedCall/ViT_Lite_Fixed_1/multi_head_attention_3_1/query_1/Reshape_1/shape"], "attr": {"T": {"type": "DT_FLOAT"}, "Tshape": {"type": "DT_INT32"}}}, {"name": "StatefulPartitionedCall/ViT_Lite_Fixed_1/multi_head_attention_3_1/value_1/Reshape_1", "op": "Reshape", "input": ["StatefulPartitionedCall/ViT_Lite_Fixed_1/multi_head_attention_3_1/value_1/MatMul", "StatefulPartitionedCall/ViT_Lite_Fixed_1/multi_head_attention_3_1/value_1/Reshape_1/shape"], "attr": {"T": {"type": "DT_FLOAT"}, "Tshape": {"type": "DT_INT32"}}}, {"name": "StatefulPartitionedCall/ViT_Lite_Fixed_1/multi_head_attention_3_1/key_1/Add", "op": "AddV2", "input": ["StatefulPartitionedCall/ViT_Lite_Fixed_1/multi_head_attention_3_1/key_1/Reshape_1", "StatefulPartitionedCall/ViT_Lite_Fixed_1/multi_head_attention_3_1/key_1/Add/ReadVariableOp"], "attr": {"T": {"type": "DT_FLOAT"}}}, {"name": "StatefulPartitionedCall/ViT_Lite_Fixed_1/multi_head_attention_3_1/query_1/Add", "op": "AddV2", "input": ["StatefulPartitionedCall/ViT_Lite_Fixed_1/multi_head_attention_3_1/query_1/Reshape_1", "StatefulPartitionedCall/ViT_Lite_Fixed_1/multi_head_attention_3_1/query_1/Add/ReadVariableOp"], "attr": {"T": {"type": "DT_FLOAT"}}}, {"name": "StatefulPartitionedCall/ViT_Lite_Fixed_1/multi_head_attention_3_1/value_1/Add", "op": "AddV2", "input": ["StatefulPartitionedCall/ViT_Lite_Fixed_1/multi_head_attention_3_1/value_1/Reshape_1", "StatefulPartitionedCall/ViT_Lite_Fixed_1/multi_head_attention_3_1/value_1/Add/ReadVariableOp"], "attr": {"T": {"type": "DT_FLOAT"}}}, {"name": "StatefulPartitionedCall/ViT_Lite_Fixed_1/multi_head_attention_3_1/transpose", "op": "Transpose", "input": ["StatefulPartitionedCall/ViT_Lite_Fixed_1/multi_head_attention_3_1/key_1/Add", "StatefulPartitionedCall/ViT_Lite_Fixed_1/multi_head_attention_3_1/transpose/perm"], "attr": {"Tperm": {"type": "DT_INT32"}, "_input_shapes": {"list": {"shape": [{"dim": [{"size": "-2"}, {"size": "196"}, {"size": "4"}, {"size": "64"}]}, {"dim": [{"size": "4"}]}]}}, "T": {"type": "DT_FLOAT"}}}, {"name": "StatefulPartitionedCall/ViT_Lite_Fixed_1/multi_head_attention_3_1/Mul", "op": "Mul", "input": ["StatefulPartitionedCall/ViT_Lite_Fixed_1/multi_head_attention_3_1/query_1/Add", "StatefulPartitionedCall/ViT_Lite_Fixed_1/multi_head_attention_3_1/Cast/x"], "attr": {"T": {"type": "DT_FLOAT"}}}, {"name": "StatefulPartitionedCall/ViT_Lite_Fixed_1/multi_head_attention_3_1/transpose_3", "op": "Transpose", "input": ["StatefulPartitionedCall/ViT_Lite_Fixed_1/multi_head_attention_3_1/value_1/Add", "StatefulPartitionedCall/ViT_Lite_Fixed_1/multi_head_attention_3_1/transpose_3/perm"], "attr": {"Tperm": {"type": "DT_INT32"}, "_input_shapes": {"list": {"shape": [{"dim": [{"size": "-2"}, {"size": "196"}, {"size": "4"}, {"size": "64"}]}, {"dim": [{"size": "4"}]}]}}, "T": {"type": "DT_FLOAT"}}}, {"name": "StatefulPartitionedCall/ViT_Lite_Fixed_1/multi_head_attention_3_1/transpose_1", "op": "Transpose", "input": ["StatefulPartitionedCall/ViT_Lite_Fixed_1/multi_head_attention_3_1/Mul", "StatefulPartitionedCall/ViT_Lite_Fixed_1/multi_head_attention_3_1/transpose_1/perm"], "attr": {"Tperm": {"type": "DT_INT32"}, "_input_shapes": {"list": {"shape": [{"dim": [{"size": "-2"}, {"size": "196"}, {"size": "4"}, {"size": "64"}]}, {"dim": [{"size": "4"}]}]}}, "T": {"type": "DT_FLOAT"}}}, {"name": "StatefulPartitionedCall/ViT_Lite_Fixed_1/multi_head_attention_3_1/MatMul", "op": "BatchMatMulV2", "input": ["StatefulPartitionedCall/ViT_Lite_Fixed_1/multi_head_attention_3_1/transpose", "StatefulPartitionedCall/ViT_Lite_Fixed_1/multi_head_attention_3_1/transpose_1"], "attr": {"adj_x": {"b": false}, "grad_y": {"b": false}, "T": {"type": "DT_FLOAT"}, "grad_x": {"b": false}, "adj_y": {"b": false}}}, {"name": "StatefulPartitionedCall/ViT_Lite_Fixed_1/multi_head_attention_3_1/transpose_2", "op": "Transpose", "input": ["StatefulPartitionedCall/ViT_Lite_Fixed_1/multi_head_attention_3_1/MatMul", "StatefulPartitionedCall/ViT_Lite_Fixed_1/multi_head_attention_3_1/transpose_2/perm"], "attr": {"Tperm": {"type": "DT_INT32"}, "_input_shapes": {"list": {"shape": [{"dim": [{"size": "-2"}, {"size": "4"}, {"size": "196"}, {"size": "196"}]}, {"dim": [{"size": "4"}]}]}}, "T": {"type": "DT_FLOAT"}}}, {"name": "StatefulPartitionedCall/ViT_Lite_Fixed_1/multi_head_attention_3_1/softmax_3_1/Softmax", "op": "Softmax", "input": ["StatefulPartitionedCall/ViT_Lite_Fixed_1/multi_head_attention_3_1/transpose_2"], "attr": {"T": {"type": "DT_FLOAT"}}}, {"name": "StatefulPartitionedCall/ViT_Lite_Fixed_1/multi_head_attention_3_1/MatMul_1", "op": "BatchMatMulV2", "input": ["StatefulPartitionedCall/ViT_Lite_Fixed_1/multi_head_attention_3_1/softmax_3_1/Softmax", "StatefulPartitionedCall/ViT_Lite_Fixed_1/multi_head_attention_3_1/transpose_3"], "attr": {"grad_y": {"b": false}, "adj_x": {"b": false}, "T": {"type": "DT_FLOAT"}, "adj_y": {"b": false}, "grad_x": {"b": false}}}, {"name": "StatefulPartitionedCall/ViT_Lite_Fixed_1/multi_head_attention_3_1/transpose_4", "op": "Transpose", "input": ["StatefulPartitionedCall/ViT_Lite_Fixed_1/multi_head_attention_3_1/MatMul_1", "StatefulPartitionedCall/ViT_Lite_Fixed_1/multi_head_attention_3_1/transpose_4/perm"], "attr": {"Tperm": {"type": "DT_INT32"}, "_input_shapes": {"list": {"shape": [{"dim": [{"size": "-2"}, {"size": "4"}, {"size": "196"}, {"size": "64"}]}, {"dim": [{"size": "4"}]}]}}, "T": {"type": "DT_FLOAT"}}}, {"name": "StatefulPartitionedCall/ViT_Lite_Fixed_1/multi_head_attention_3_1/attention_output_1/Reshape", "op": "Reshape", "input": ["StatefulPartitionedCall/ViT_Lite_Fixed_1/multi_head_attention_3_1/transpose_4", "StatefulPartitionedCall/ViT_Lite_Fixed_1/multi_head_attention_3_1/attention_output_1/Reshape/shape"], "attr": {"T": {"type": "DT_FLOAT"}, "Tshape": {"type": "DT_INT32"}}}, {"name": "StatefulPartitionedCall/ViT_Lite_Fixed_1/multi_head_attention_3_1/attention_output_1/MatMul", "op": "BatchMatMulV2", "input": ["StatefulPartitionedCall/ViT_Lite_Fixed_1/multi_head_attention_3_1/attention_output_1/Reshape", "StatefulPartitionedCall/ViT_Lite_Fixed_1/multi_head_attention_3_1/attention_output_1/Reshape_1"], "attr": {"grad_y": {"b": false}, "adj_x": {"b": false}, "T": {"type": "DT_FLOAT"}, "grad_x": {"b": false}, "adj_y": {"b": false}}}, {"name": "StatefulPartitionedCall/ViT_Lite_Fixed_1/multi_head_attention_3_1/attention_output_1/BiasAdd", "op": "BiasAdd", "input": ["StatefulPartitionedCall/ViT_Lite_Fixed_1/multi_head_attention_3_1/attention_output_1/MatMul", "StatefulPartitionedCall/ViT_Lite_Fixed_1/multi_head_attention_3_1/attention_output_1/BiasAdd/ReadVariableOp"], "attr": {"_input_shapes": {"list": {"shape": [{"dim": [{"size": "-2"}, {"size": "196"}, {"size": "256"}]}, {"dim": [{"size": "256"}]}]}}, "T": {"type": "DT_FLOAT"}, "data_format": {"s": "TkhXQw=="}}}, {"name": "StatefulPartitionedCall/ViT_Lite_Fixed_1/add_6_1/Add", "op": "AddV2", "input": ["StatefulPartitionedCall/ViT_Lite_Fixed_1/multi_head_attention_3_1/attention_output_1/BiasAdd", "StatefulPartitionedCall/ViT_Lite_Fixed_1/add_5_1/Add"], "attr": {"T": {"type": "DT_FLOAT"}}}, {"name": "StatefulPartitionedCall/ViT_Lite_Fixed_1/layer_normalization_7_1/moments/mean", "op": "Mean", "input": ["StatefulPartitionedCall/ViT_Lite_Fixed_1/add_6_1/Add", "StatefulPartitionedCall/ViT_Lite_Fixed_1/layer_normalization_7_1/moments/mean/reduction_indices"], "attr": {"Tidx": {"type": "DT_INT32"}, "T": {"type": "DT_FLOAT"}, "keep_dims": {"b": true}}}, {"name": "StatefulPartitionedCall/ViT_Lite_Fixed_1/layer_normalization_7_1/Neg", "op": "Neg", "input": ["StatefulPartitionedCall/ViT_Lite_Fixed_1/layer_normalization_7_1/moments/mean"], "attr": {"T": {"type": "DT_FLOAT"}}}, {"name": "StatefulPartitionedCall/ViT_Lite_Fixed_1/layer_normalization_7_1/moments/SquaredDifference", "op": "SquaredDifference", "input": ["StatefulPartitionedCall/ViT_Lite_Fixed_1/add_6_1/Add", "StatefulPartitionedCall/ViT_Lite_Fixed_1/layer_normalization_7_1/moments/mean"], "attr": {"T": {"type": "DT_FLOAT"}}}, {"name": "StatefulPartitionedCall/ViT_Lite_Fixed_1/layer_normalization_7_1/moments/variance", "op": "Mean", "input": ["StatefulPartitionedCall/ViT_Lite_Fixed_1/layer_normalization_7_1/moments/SquaredDifference", "StatefulPartitionedCall/ViT_Lite_Fixed_1/layer_normalization_7_1/moments/variance/reduction_indices"], "attr": {"T": {"type": "DT_FLOAT"}, "Tidx": {"type": "DT_INT32"}, "keep_dims": {"b": true}}}, {"name": "StatefulPartitionedCall/ViT_Lite_Fixed_1/layer_normalization_7_1/add", "op": "AddV2", "input": ["StatefulPartitionedCall/ViT_Lite_Fixed_1/layer_normalization_7_1/moments/variance", "StatefulPartitionedCall/ViT_Lite_Fixed_1/layer_normalization_7_1/add/y"], "attr": {"T": {"type": "DT_FLOAT"}}}, {"name": "StatefulPartitionedCall/ViT_Lite_Fixed_1/layer_normalization_7_1/Rsqrt", "op": "Rsqrt", "input": ["StatefulPartitionedCall/ViT_Lite_Fixed_1/layer_normalization_7_1/add"], "attr": {"T": {"type": "DT_FLOAT"}}}, {"name": "StatefulPartitionedCall/ViT_Lite_Fixed_1/layer_normalization_7_1/mul", "op": "Mul", "input": ["StatefulPartitionedCall/ViT_Lite_Fixed_1/layer_normalization_7_1/Rsqrt", "StatefulPartitionedCall/ViT_Lite_Fixed_1/layer_normalization_7_1/Reshape"], "attr": {"T": {"type": "DT_FLOAT"}}}, {"name": "StatefulPartitionedCall/ViT_Lite_Fixed_1/layer_normalization_7_1/mul_1", "op": "Mul", "input": ["StatefulPartitionedCall/ViT_Lite_Fixed_1/layer_normalization_7_1/Neg", "StatefulPartitionedCall/ViT_Lite_Fixed_1/layer_normalization_7_1/mul"], "attr": {"T": {"type": "DT_FLOAT"}}}, {"name": "StatefulPartitionedCall/ViT_Lite_Fixed_1/layer_normalization_7_1/mul_2", "op": "Mul", "input": ["StatefulPartitionedCall/ViT_Lite_Fixed_1/add_6_1/Add", "StatefulPartitionedCall/ViT_Lite_Fixed_1/layer_normalization_7_1/mul"], "attr": {"T": {"type": "DT_FLOAT"}}}, {"name": "StatefulPartitionedCall/ViT_Lite_Fixed_1/layer_normalization_7_1/ArithmeticOptimizer/AddOpsRewrite_Leaf_1_add_2", "op": "AddN", "input": ["StatefulPartitionedCall/ViT_Lite_Fixed_1/layer_normalization_7_1/mul_2", "StatefulPartitionedCall/ViT_Lite_Fixed_1/layer_normalization_7_1/mul_1"], "attr": {"N": {"i": "2"}, "T": {"type": "DT_FLOAT"}, "_grappler_ArithmeticOptimizer_AddOpsRewriteStage": {"b": true}}}, {"name": "StatefulPartitionedCall/ViT_Lite_Fixed_1/layer_normalization_7_1/ArithmeticOptimizer/AddOpsRewrite_add_2", "op": "AddV2", "input": ["StatefulPartitionedCall/ViT_Lite_Fixed_1/layer_normalization_7_1/Reshape_1", "StatefulPartitionedCall/ViT_Lite_Fixed_1/layer_normalization_7_1/ArithmeticOptimizer/AddOpsRewrite_Leaf_1_add_2"], "attr": {"T": {"type": "DT_FLOAT"}, "_grappler_ArithmeticOptimizer_AddOpsRewriteStage": {"b": true}}}, {"name": "StatefulPartitionedCall/ViT_Lite_Fixed_1/dense_7_1/MatMul", "op": "BatchMatMulV2", "input": ["StatefulPartitionedCall/ViT_Lite_Fixed_1/layer_normalization_7_1/ArithmeticOptimizer/AddOpsRewrite_add_2", "StatefulPartitionedCall/ViT_Lite_Fixed_1/dense_7_1/Cast/ReadVariableOp"], "attr": {"grad_y": {"b": false}, "adj_x": {"b": false}, "T": {"type": "DT_FLOAT"}, "grad_x": {"b": false}, "adj_y": {"b": false}}}, {"name": "StatefulPartitionedCall/ViT_Lite_Fixed_1/dense_7_1/BiasAdd", "op": "BiasAdd", "input": ["StatefulPartitionedCall/ViT_Lite_Fixed_1/dense_7_1/MatMul", "StatefulPartitionedCall/ViT_Lite_Fixed_1/dense_7_1/BiasAdd/ReadVariableOp"], "attr": {"_input_shapes": {"list": {"shape": [{"dim": [{"size": "-2"}, {"size": "196"}, {"size": "512"}]}, {"dim": [{"size": "512"}]}]}}, "T": {"type": "DT_FLOAT"}, "data_format": {"s": "TkhXQw=="}}}, {"name": "StatefulPartitionedCall/ViT_Lite_Fixed_1/dense_7_1/Gelu/mul", "op": "Mul", "input": ["StatefulPartitionedCall/ViT_Lite_Fixed_1/dense_7_1/Gelu/mul/x", "StatefulPartitionedCall/ViT_Lite_Fixed_1/dense_7_1/BiasAdd"], "attr": {"_grappler_ArithmeticOptimizer_MinimizeBroadcasts": {"b": true}, "T": {"type": "DT_FLOAT"}}}, {"name": "StatefulPartitionedCall/ViT_Lite_Fixed_1/dense_7_1/Gelu/Neg", "op": "Neg", "input": ["StatefulPartitionedCall/ViT_Lite_Fixed_1/dense_7_1/BiasAdd"], "attr": {"T": {"type": "DT_FLOAT"}}}, {"name": "StatefulPartitionedCall/ViT_Lite_Fixed_1/dense_7_1/Gelu/mul_1", "op": "Mul", "input": ["StatefulPartitionedCall/ViT_Lite_Fixed_1/dense_7_1/Gelu/Neg", "StatefulPartitionedCall/ViT_Lite_Fixed_1/dense_7_1/Gelu/Cast/x"], "attr": {"T": {"type": "DT_FLOAT"}}}, {"name": "StatefulPartitionedCall/ViT_Lite_Fixed_1/dense_7_1/Gelu/Erfc", "op": "Erfc", "input": ["StatefulPartitionedCall/ViT_Lite_Fixed_1/dense_7_1/Gelu/mul_1"], "attr": {"T": {"type": "DT_FLOAT"}}}, {"name": "StatefulPartitionedCall/ViT_Lite_Fixed_1/dense_7_1/Gelu/mul_2", "op": "Mul", "input": ["StatefulPartitionedCall/ViT_Lite_Fixed_1/dense_7_1/Gelu/mul", "StatefulPartitionedCall/ViT_Lite_Fixed_1/dense_7_1/Gelu/Erfc"], "attr": {"_grappler_ArithmeticOptimizer_MinimizeBroadcasts": {"b": true}, "T": {"type": "DT_FLOAT"}}}, {"name": "StatefulPartitionedCall/ViT_Lite_Fixed_1/dense_8_1/MatMul", "op": "BatchMatMulV2", "input": ["StatefulPartitionedCall/ViT_Lite_Fixed_1/dense_7_1/Gelu/mul_2", "StatefulPartitionedCall/ViT_Lite_Fixed_1/dense_8_1/Cast/ReadVariableOp"], "attr": {"grad_y": {"b": false}, "adj_x": {"b": false}, "T": {"type": "DT_FLOAT"}, "adj_y": {"b": false}, "grad_x": {"b": false}}}, {"name": "StatefulPartitionedCall/ViT_Lite_Fixed_1/dense_8_1/BiasAdd", "op": "BiasAdd", "input": ["StatefulPartitionedCall/ViT_Lite_Fixed_1/dense_8_1/MatMul", "StatefulPartitionedCall/ViT_Lite_Fixed_1/dense_8_1/BiasAdd/ReadVariableOp"], "attr": {"data_format": {"s": "TkhXQw=="}, "T": {"type": "DT_FLOAT"}, "_input_shapes": {"list": {"shape": [{"dim": [{"size": "-2"}, {"size": "196"}, {"size": "256"}]}, {"dim": [{"size": "256"}]}]}}}}, {"name": "StatefulPartitionedCall/ViT_Lite_Fixed_1/add_7_1/Add", "op": "AddV2", "input": ["StatefulPartitionedCall/ViT_Lite_Fixed_1/dense_8_1/BiasAdd", "StatefulPartitionedCall/ViT_Lite_Fixed_1/add_6_1/Add"], "attr": {"T": {"type": "DT_FLOAT"}}}, {"name": "StatefulPartitionedCall/ViT_Lite_Fixed_1/layer_normalization_8_1/moments/mean", "op": "Mean", "input": ["StatefulPartitionedCall/ViT_Lite_Fixed_1/add_7_1/Add", "StatefulPartitionedCall/ViT_Lite_Fixed_1/layer_normalization_8_1/moments/mean/reduction_indices"], "attr": {"Tidx": {"type": "DT_INT32"}, "T": {"type": "DT_FLOAT"}, "keep_dims": {"b": true}}}, {"name": "StatefulPartitionedCall/ViT_Lite_Fixed_1/layer_normalization_8_1/Neg", "op": "Neg", "input": ["StatefulPartitionedCall/ViT_Lite_Fixed_1/layer_normalization_8_1/moments/mean"], "attr": {"T": {"type": "DT_FLOAT"}}}, {"name": "StatefulPartitionedCall/ViT_Lite_Fixed_1/layer_normalization_8_1/moments/SquaredDifference", "op": "SquaredDifference", "input": ["StatefulPartitionedCall/ViT_Lite_Fixed_1/add_7_1/Add", "StatefulPartitionedCall/ViT_Lite_Fixed_1/layer_normalization_8_1/moments/mean"], "attr": {"T": {"type": "DT_FLOAT"}}}, {"name": "StatefulPartitionedCall/ViT_Lite_Fixed_1/layer_normalization_8_1/moments/variance", "op": "Mean", "input": ["StatefulPartitionedCall/ViT_Lite_Fixed_1/layer_normalization_8_1/moments/SquaredDifference", "StatefulPartitionedCall/ViT_Lite_Fixed_1/layer_normalization_8_1/moments/variance/reduction_indices"], "attr": {"T": {"type": "DT_FLOAT"}, "Tidx": {"type": "DT_INT32"}, "keep_dims": {"b": true}}}, {"name": "StatefulPartitionedCall/ViT_Lite_Fixed_1/layer_normalization_8_1/add", "op": "AddV2", "input": ["StatefulPartitionedCall/ViT_Lite_Fixed_1/layer_normalization_8_1/moments/variance", "StatefulPartitionedCall/ViT_Lite_Fixed_1/layer_normalization_8_1/add/y"], "attr": {"T": {"type": "DT_FLOAT"}}}, {"name": "StatefulPartitionedCall/ViT_Lite_Fixed_1/layer_normalization_8_1/Rsqrt", "op": "Rsqrt", "input": ["StatefulPartitionedCall/ViT_Lite_Fixed_1/layer_normalization_8_1/add"], "attr": {"T": {"type": "DT_FLOAT"}}}, {"name": "StatefulPartitionedCall/ViT_Lite_Fixed_1/layer_normalization_8_1/mul", "op": "Mul", "input": ["StatefulPartitionedCall/ViT_Lite_Fixed_1/layer_normalization_8_1/Rsqrt", "StatefulPartitionedCall/ViT_Lite_Fixed_1/layer_normalization_8_1/Reshape"], "attr": {"T": {"type": "DT_FLOAT"}}}, {"name": "StatefulPartitionedCall/ViT_Lite_Fixed_1/layer_normalization_8_1/mul_1", "op": "Mul", "input": ["StatefulPartitionedCall/ViT_Lite_Fixed_1/layer_normalization_8_1/Neg", "StatefulPartitionedCall/ViT_Lite_Fixed_1/layer_normalization_8_1/mul"], "attr": {"T": {"type": "DT_FLOAT"}}}, {"name": "StatefulPartitionedCall/ViT_Lite_Fixed_1/layer_normalization_8_1/mul_2", "op": "Mul", "input": ["StatefulPartitionedCall/ViT_Lite_Fixed_1/add_7_1/Add", "StatefulPartitionedCall/ViT_Lite_Fixed_1/layer_normalization_8_1/mul"], "attr": {"T": {"type": "DT_FLOAT"}}}, {"name": "StatefulPartitionedCall/ViT_Lite_Fixed_1/layer_normalization_8_1/ArithmeticOptimizer/AddOpsRewrite_Leaf_1_add_2", "op": "AddN", "input": ["StatefulPartitionedCall/ViT_Lite_Fixed_1/layer_normalization_8_1/mul_2", "StatefulPartitionedCall/ViT_Lite_Fixed_1/layer_normalization_8_1/mul_1"], "attr": {"N": {"i": "2"}, "T": {"type": "DT_FLOAT"}, "_grappler_ArithmeticOptimizer_AddOpsRewriteStage": {"b": true}}}, {"name": "StatefulPartitionedCall/ViT_Lite_Fixed_1/layer_normalization_8_1/ArithmeticOptimizer/AddOpsRewrite_add_2", "op": "AddV2", "input": ["StatefulPartitionedCall/ViT_Lite_Fixed_1/layer_normalization_8_1/Reshape_1", "StatefulPartitionedCall/ViT_Lite_Fixed_1/layer_normalization_8_1/ArithmeticOptimizer/AddOpsRewrite_Leaf_1_add_2"], "attr": {"T": {"type": "DT_FLOAT"}, "_grappler_ArithmeticOptimizer_AddOpsRewriteStage": {"b": true}}}, {"name": "StatefulPartitionedCall/ViT_Lite_Fixed_1/global_average_pooling1d_1/Mean", "op": "Mean", "input": ["StatefulPartitionedCall/ViT_Lite_Fixed_1/layer_normalization_8_1/ArithmeticOptimizer/AddOpsRewrite_add_2", "StatefulPartitionedCall/ViT_Lite_Fixed_1/global_average_pooling1d_1/Mean/reduction_indices"], "attr": {"T": {"type": "DT_FLOAT"}, "Tidx": {"type": "DT_INT32"}, "keep_dims": {"b": false}}}, {"name": "StatefulPartitionedCall/ViT_Lite_Fixed_1/dense_9_1/Relu", "op": "_FusedMatMul", "input": ["StatefulPartitionedCall/ViT_Lite_Fixed_1/global_average_pooling1d_1/Mean", "StatefulPartitionedCall/ViT_Lite_Fixed_1/dense_9_1/Cast/ReadVariableOp", "StatefulPartitionedCall/ViT_Lite_Fixed_1/dense_9_1/BiasAdd/ReadVariableOp"], "device": "/device:CPU:0", "attr": {"transpose_a": {"b": false}, "_input_shapes": {"list": {"shape": [{"dim": [{"size": "-2"}, {"size": "256"}]}, {"dim": [{"size": "256"}, {"size": "256"}]}]}}, "transpose_b": {"b": false}, "fused_ops": {"list": {"s": ["Qmlhc0FkZA==", "UmVsdQ=="]}}, "num_args": {"i": "1"}, "leakyrelu_alpha": {"f": 0.2}, "epsilon": {"f": 0.0}, "T": {"type": "DT_FLOAT"}}}, {"name": "StatefulPartitionedCall/ViT_Lite_Fixed_1/dense_10_1/BiasAdd", "op": "_FusedMatMul", "input": ["StatefulPartitionedCall/ViT_Lite_Fixed_1/dense_9_1/Relu", "StatefulPartitionedCall/ViT_Lite_Fixed_1/dense_10_1/Cast/ReadVariableOp", "StatefulPartitionedCall/ViT_Lite_Fixed_1/dense_10_1/BiasAdd/ReadVariableOp"], "device": "/device:CPU:0", "attr": {"transpose_a": {"b": false}, "_input_shapes": {"list": {"shape": [{"dim": [{"size": "-2"}, {"size": "256"}]}, {"dim": [{"size": "256"}, {"size": "2"}]}]}}, "transpose_b": {"b": false}, "fused_ops": {"list": {"s": ["Qmlhc0FkZA=="]}}, "num_args": {"i": "1"}, "leakyrelu_alpha": {"f": 0.2}, "epsilon": {"f": 0.0}, "T": {"type": "DT_FLOAT"}}}, {"name": "StatefulPartitionedCall/ViT_Lite_Fixed_1/dense_10_1/Softmax", "op": "Softmax", "input": ["StatefulPartitionedCall/ViT_Lite_Fixed_1/dense_10_1/BiasAdd"], "attr": {"T": {"type": "DT_FLOAT"}}}, {"name": "Identity", "op": "Identity", "input": ["StatefulPartitionedCall/ViT_Lite_Fixed_1/dense_10_1/Softmax"], "attr": {"T": {"type": "DT_FLOAT"}}}], "library": {}, "versions": {"producer": 2129}}, "weightsManifest": [{"paths": ["group1-shard1of3.bin", "group1-shard2of3.bin", "group1-shard3of3.bin"], "weights": [{"name": "StatefulPartitionedCall/ViT_Lite_Fixed_1/layer_normalization_8_1/Reshape_1", "shape": [1, 1, 256], "dtype": "float32"}, {"name": "StatefulPartitionedCall/ViT_Lite_Fixed_1/dense_7_1/Gelu/mul/x", "shape": [], "dtype": "float32"}, {"name": "StatefulPartitionedCall/ViT_Lite_Fixed_1/layer_normalization_7_1/Reshape_1", "shape": [1, 1, 256], "dtype": "float32"}, {"name": "StatefulPartitionedCall/ViT_Lite_Fixed_1/layer_normalization_7_1/moments/mean/reduction_indices", "shape": [1], "dtype": "int32"}, {"name": "StatefulPartitionedCall/ViT_Lite_Fixed_1/layer_normalization_7_1/moments/variance/reduction_indices", "shape": [1], "dtype": "int32"}, {"name": "StatefulPartitionedCall/ViT_Lite_Fixed_1/layer_normalization_7_1/add/y", "shape": [], "dtype": "float32"}, {"name": "StatefulPartitionedCall/ViT_Lite_Fixed_1/layer_normalization_7_1/Reshape", "shape": [1, 1, 256], "dtype": "float32"}, {"name": "StatefulPartitionedCall/ViT_Lite_Fixed_1/dense_7_1/Cast/ReadVariableOp", "shape": [256, 512], "dtype": "float32"}, {"name": "StatefulPartitionedCall/ViT_Lite_Fixed_1/dense_7_1/BiasAdd/ReadVariableOp", "shape": [512], "dtype": "float32"}, {"name": "StatefulPartitionedCall/ViT_Lite_Fixed_1/dense_7_1/Gelu/Cast/x", "shape": [], "dtype": "float32"}, {"name": "StatefulPartitionedCall/ViT_Lite_Fixed_1/dense_8_1/Cast/ReadVariableOp", "shape": [512, 256], "dtype": "float32"}, {"name": "StatefulPartitionedCall/ViT_Lite_Fixed_1/dense_8_1/BiasAdd/ReadVariableOp", "shape": [256], "dtype": "float32"}, {"name": "StatefulPartitionedCall/ViT_Lite_Fixed_1/multi_head_attention_3_1/key_1/Reshape", "shape": [256, 256], "dtype": "float32"}, {"name": "StatefulPartitionedCall/ViT_Lite_Fixed_1/multi_head_attention_3_1/key_1/Reshape_1/shape", "shape": [4], "dtype": "int32"}, {"name": "StatefulPartitionedCall/ViT_Lite_Fixed_1/multi_head_attention_3_1/key_1/Add/ReadVariableOp", "shape": [4, 64], "dtype": "float32"}, {"name": "StatefulPartitionedCall/ViT_Lite_Fixed_1/multi_head_attention_3_1/transpose/perm", "shape": [4], "dtype": "int32"}, {"name": "StatefulPartitionedCall/ViT_Lite_Fixed_1/multi_head_attention_3_1/query_1/Reshape", "shape": [256, 256], "dtype": "float32"}, {"name": "StatefulPartitionedCall/ViT_Lite_Fixed_1/multi_head_attention_3_1/query_1/Reshape_1/shape", "shape": [4], "dtype": "int32"}, {"name": "StatefulPartitionedCall/ViT_Lite_Fixed_1/multi_head_attention_3_1/query_1/Add/ReadVariableOp", "shape": [4, 64], "dtype": "float32"}, {"name": "StatefulPartitionedCall/ViT_Lite_Fixed_1/multi_head_attention_3_1/Cast/x", "shape": [], "dtype": "float32"}, {"name": "StatefulPartitionedCall/ViT_Lite_Fixed_1/multi_head_attention_3_1/transpose_1/perm", "shape": [4], "dtype": "int32"}, {"name": "StatefulPartitionedCall/ViT_Lite_Fixed_1/multi_head_attention_3_1/transpose_2/perm", "shape": [4], "dtype": "int32"}, {"name": "StatefulPartitionedCall/ViT_Lite_Fixed_1/layer_normalization_6_1/Reshape_1", "shape": [1, 1, 256], "dtype": "float32"}, {"name": "StatefulPartitionedCall/ViT_Lite_Fixed_1/layer_normalization_6_1/moments/mean/reduction_indices", "shape": [1], "dtype": "int32"}, {"name": "StatefulPartitionedCall/ViT_Lite_Fixed_1/layer_normalization_6_1/moments/variance/reduction_indices", "shape": [1], "dtype": "int32"}, {"name": "StatefulPartitionedCall/ViT_Lite_Fixed_1/layer_normalization_6_1/add/y", "shape": [], "dtype": "float32"}, {"name": "StatefulPartitionedCall/ViT_Lite_Fixed_1/layer_normalization_6_1/Reshape", "shape": [1, 1, 256], "dtype": "float32"}, {"name": "StatefulPartitionedCall/ViT_Lite_Fixed_1/multi_head_attention_3_1/value_1/Reshape", "shape": [256, 256], "dtype": "float32"}, {"name": "StatefulPartitionedCall/ViT_Lite_Fixed_1/multi_head_attention_3_1/value_1/Reshape_1/shape", "shape": [4], "dtype": "int32"}, {"name": "StatefulPartitionedCall/ViT_Lite_Fixed_1/multi_head_attention_3_1/value_1/Add/ReadVariableOp", "shape": [4, 64], "dtype": "float32"}, {"name": "StatefulPartitionedCall/ViT_Lite_Fixed_1/multi_head_attention_3_1/transpose_3/perm", "shape": [4], "dtype": "int32"}, {"name": "StatefulPartitionedCall/ViT_Lite_Fixed_1/multi_head_attention_3_1/transpose_4/perm", "shape": [4], "dtype": "int32"}, {"name": "StatefulPartitionedCall/ViT_Lite_Fixed_1/multi_head_attention_3_1/attention_output_1/Reshape/shape", "shape": [3], "dtype": "int32"}, {"name": "StatefulPartitionedCall/ViT_Lite_Fixed_1/multi_head_attention_3_1/attention_output_1/Reshape_1", "shape": [256, 256], "dtype": "float32"}, {"name": "StatefulPartitionedCall/ViT_Lite_Fixed_1/multi_head_attention_3_1/attention_output_1/BiasAdd/ReadVariableOp", "shape": [256], "dtype": "float32"}, {"name": "StatefulPartitionedCall/ViT_Lite_Fixed_1/dense_5_1/Gelu/mul/x", "shape": [], "dtype": "float32"}, {"name": "StatefulPartitionedCall/ViT_Lite_Fixed_1/layer_normalization_5_1/Reshape_1", "shape": [1, 1, 256], "dtype": "float32"}, {"name": "StatefulPartitionedCall/ViT_Lite_Fixed_1/layer_normalization_5_1/moments/mean/reduction_indices", "shape": [1], "dtype": "int32"}, {"name": "StatefulPartitionedCall/ViT_Lite_Fixed_1/layer_normalization_5_1/moments/variance/reduction_indices", "shape": [1], "dtype": "int32"}, {"name": "StatefulPartitionedCall/ViT_Lite_Fixed_1/layer_normalization_5_1/add/y", "shape": [], "dtype": "float32"}, {"name": "StatefulPartitionedCall/ViT_Lite_Fixed_1/layer_normalization_5_1/Reshape", "shape": [1, 1, 256], "dtype": "float32"}, {"name": "StatefulPartitionedCall/ViT_Lite_Fixed_1/dense_5_1/Cast/ReadVariableOp", "shape": [256, 512], "dtype": "float32"}, {"name": "StatefulPartitionedCall/ViT_Lite_Fixed_1/dense_5_1/BiasAdd/ReadVariableOp", "shape": [512], "dtype": "float32"}, {"name": "StatefulPartitionedCall/ViT_Lite_Fixed_1/dense_5_1/Gelu/Cast/x", "shape": [], "dtype": "float32"}, {"name": "StatefulPartitionedCall/ViT_Lite_Fixed_1/dense_6_1/Cast/ReadVariableOp", "shape": [512, 256], "dtype": "float32"}, {"name": "StatefulPartitionedCall/ViT_Lite_Fixed_1/dense_6_1/BiasAdd/ReadVariableOp", "shape": [256], "dtype": "float32"}, {"name": "StatefulPartitionedCall/ViT_Lite_Fixed_1/multi_head_attention_2_1/key_1/Reshape", "shape": [256, 256], "dtype": "float32"}, {"name": "StatefulPartitionedCall/ViT_Lite_Fixed_1/multi_head_attention_2_1/key_1/Reshape_1/shape", "shape": [4], "dtype": "int32"}, {"name": "StatefulPartitionedCall/ViT_Lite_Fixed_1/multi_head_attention_2_1/key_1/Add/ReadVariableOp", "shape": [4, 64], "dtype": "float32"}, {"name": "StatefulPartitionedCall/ViT_Lite_Fixed_1/multi_head_attention_2_1/transpose/perm", "shape": [4], "dtype": "int32"}, {"name": "StatefulPartitionedCall/ViT_Lite_Fixed_1/multi_head_attention_2_1/query_1/Reshape", "shape": [256, 256], "dtype": "float32"}, {"name": "StatefulPartitionedCall/ViT_Lite_Fixed_1/multi_head_attention_2_1/query_1/Reshape_1/shape", "shape": [4], "dtype": "int32"}, {"name": "StatefulPartitionedCall/ViT_Lite_Fixed_1/multi_head_attention_2_1/query_1/Add/ReadVariableOp", "shape": [4, 64], "dtype": "float32"}, {"name": "StatefulPartitionedCall/ViT_Lite_Fixed_1/multi_head_attention_2_1/Cast/x", "shape": [], "dtype": "float32"}, {"name": "StatefulPartitionedCall/ViT_Lite_Fixed_1/multi_head_attention_2_1/transpose_1/perm", "shape": [4], "dtype": "int32"}, {"name": "StatefulPartitionedCall/ViT_Lite_Fixed_1/multi_head_attention_2_1/transpose_2/perm", "shape": [4], "dtype": "int32"}, {"name": "StatefulPartitionedCall/ViT_Lite_Fixed_1/layer_normalization_4_1/Reshape_1", "shape": [1, 1, 256], "dtype": "float32"}, {"name": "StatefulPartitionedCall/ViT_Lite_Fixed_1/layer_normalization_4_1/moments/mean/reduction_indices", "shape": [1], "dtype": "int32"}, {"name": "StatefulPartitionedCall/ViT_Lite_Fixed_1/layer_normalization_4_1/moments/variance/reduction_indices", "shape": [1], "dtype": "int32"}, {"name": "StatefulPartitionedCall/ViT_Lite_Fixed_1/layer_normalization_4_1/add/y", "shape": [], "dtype": "float32"}, {"name": "StatefulPartitionedCall/ViT_Lite_Fixed_1/layer_normalization_4_1/Reshape", "shape": [1, 1, 256], "dtype": "float32"}, {"name": "StatefulPartitionedCall/ViT_Lite_Fixed_1/multi_head_attention_2_1/value_1/Reshape", "shape": [256, 256], "dtype": "float32"}, {"name": "StatefulPartitionedCall/ViT_Lite_Fixed_1/multi_head_attention_2_1/value_1/Reshape_1/shape", "shape": [4], "dtype": "int32"}, {"name": "StatefulPartitionedCall/ViT_Lite_Fixed_1/multi_head_attention_2_1/value_1/Add/ReadVariableOp", "shape": [4, 64], "dtype": "float32"}, {"name": "StatefulPartitionedCall/ViT_Lite_Fixed_1/multi_head_attention_2_1/transpose_3/perm", "shape": [4], "dtype": "int32"}, {"name": "StatefulPartitionedCall/ViT_Lite_Fixed_1/multi_head_attention_2_1/transpose_4/perm", "shape": [4], "dtype": "int32"}, {"name": "StatefulPartitionedCall/ViT_Lite_Fixed_1/multi_head_attention_2_1/attention_output_1/Reshape/shape", "shape": [3], "dtype": "int32"}, {"name": "StatefulPartitionedCall/ViT_Lite_Fixed_1/multi_head_attention_2_1/attention_output_1/Reshape_1", "shape": [256, 256], "dtype": "float32"}, {"name": "StatefulPartitionedCall/ViT_Lite_Fixed_1/multi_head_attention_2_1/attention_output_1/BiasAdd/ReadVariableOp", "shape": [256], "dtype": "float32"}, {"name": "StatefulPartitionedCall/ViT_Lite_Fixed_1/dense_3_1/Gelu/mul/x", "shape": [], "dtype": "float32"}, {"name": "StatefulPartitionedCall/ViT_Lite_Fixed_1/layer_normalization_3_1/Reshape_1", "shape": [1, 1, 256], "dtype": "float32"}, {"name": "StatefulPartitionedCall/ViT_Lite_Fixed_1/layer_normalization_3_1/moments/mean/reduction_indices", "shape": [1], "dtype": "int32"}, {"name": "StatefulPartitionedCall/ViT_Lite_Fixed_1/layer_normalization_3_1/moments/variance/reduction_indices", "shape": [1], "dtype": "int32"}, {"name": "StatefulPartitionedCall/ViT_Lite_Fixed_1/layer_normalization_3_1/add/y", "shape": [], "dtype": "float32"}, {"name": "StatefulPartitionedCall/ViT_Lite_Fixed_1/layer_normalization_3_1/Reshape", "shape": [1, 1, 256], "dtype": "float32"}, {"name": "StatefulPartitionedCall/ViT_Lite_Fixed_1/dense_3_1/Cast/ReadVariableOp", "shape": [256, 512], "dtype": "float32"}, {"name": "StatefulPartitionedCall/ViT_Lite_Fixed_1/dense_3_1/BiasAdd/ReadVariableOp", "shape": [512], "dtype": "float32"}, {"name": "StatefulPartitionedCall/ViT_Lite_Fixed_1/dense_3_1/Gelu/Cast/x", "shape": [], "dtype": "float32"}, {"name": "StatefulPartitionedCall/ViT_Lite_Fixed_1/dense_4_1/Cast/ReadVariableOp", "shape": [512, 256], "dtype": "float32"}, {"name": "StatefulPartitionedCall/ViT_Lite_Fixed_1/dense_4_1/BiasAdd/ReadVariableOp", "shape": [256], "dtype": "float32"}, {"name": "StatefulPartitionedCall/ViT_Lite_Fixed_1/multi_head_attention_1_2/key_1/Reshape", "shape": [256, 256], "dtype": "float32"}, {"name": "StatefulPartitionedCall/ViT_Lite_Fixed_1/multi_head_attention_1_2/key_1/Reshape_1/shape", "shape": [4], "dtype": "int32"}, {"name": "StatefulPartitionedCall/ViT_Lite_Fixed_1/multi_head_attention_1_2/key_1/Add/ReadVariableOp", "shape": [4, 64], "dtype": "float32"}, {"name": "StatefulPartitionedCall/ViT_Lite_Fixed_1/multi_head_attention_1_2/transpose/perm", "shape": [4], "dtype": "int32"}, {"name": "StatefulPartitionedCall/ViT_Lite_Fixed_1/multi_head_attention_1_2/query_1/Reshape", "shape": [256, 256], "dtype": "float32"}, {"name": "StatefulPartitionedCall/ViT_Lite_Fixed_1/multi_head_attention_1_2/query_1/Reshape_1/shape", "shape": [4], "dtype": "int32"}, {"name": "StatefulPartitionedCall/ViT_Lite_Fixed_1/multi_head_attention_1_2/query_1/Add/ReadVariableOp", "shape": [4, 64], "dtype": "float32"}, {"name": "StatefulPartitionedCall/ViT_Lite_Fixed_1/multi_head_attention_1_2/Cast/x", "shape": [], "dtype": "float32"}, {"name": "StatefulPartitionedCall/ViT_Lite_Fixed_1/multi_head_attention_1_2/transpose_1/perm", "shape": [4], "dtype": "int32"}, {"name": "StatefulPartitionedCall/ViT_Lite_Fixed_1/multi_head_attention_1_2/transpose_2/perm", "shape": [4], "dtype": "int32"}, {"name": "StatefulPartitionedCall/ViT_Lite_Fixed_1/layer_normalization_2_1/Reshape_1", "shape": [1, 1, 256], "dtype": "float32"}, {"name": "StatefulPartitionedCall/ViT_Lite_Fixed_1/layer_normalization_2_1/moments/mean/reduction_indices", "shape": [1], "dtype": "int32"}, {"name": "StatefulPartitionedCall/ViT_Lite_Fixed_1/layer_normalization_2_1/moments/variance/reduction_indices", "shape": [1], "dtype": "int32"}, {"name": "StatefulPartitionedCall/ViT_Lite_Fixed_1/layer_normalization_2_1/add/y", "shape": [], "dtype": "float32"}, {"name": "StatefulPartitionedCall/ViT_Lite_Fixed_1/layer_normalization_2_1/Reshape", "shape": [1, 1, 256], "dtype": "float32"}, {"name": "StatefulPartitionedCall/ViT_Lite_Fixed_1/multi_head_attention_1_2/value_1/Reshape", "shape": [256, 256], "dtype": "float32"}, {"name": "StatefulPartitionedCall/ViT_Lite_Fixed_1/multi_head_attention_1_2/value_1/Reshape_1/shape", "shape": [4], "dtype": "int32"}, {"name": "StatefulPartitionedCall/ViT_Lite_Fixed_1/multi_head_attention_1_2/value_1/Add/ReadVariableOp", "shape": [4, 64], "dtype": "float32"}, {"name": "StatefulPartitionedCall/ViT_Lite_Fixed_1/multi_head_attention_1_2/transpose_3/perm", "shape": [4], "dtype": "int32"}, {"name": "StatefulPartitionedCall/ViT_Lite_Fixed_1/multi_head_attention_1_2/transpose_4/perm", "shape": [4], "dtype": "int32"}, {"name": "StatefulPartitionedCall/ViT_Lite_Fixed_1/multi_head_attention_1_2/attention_output_1/Reshape/shape", "shape": [3], "dtype": "int32"}, {"name": "StatefulPartitionedCall/ViT_Lite_Fixed_1/multi_head_attention_1_2/attention_output_1/Reshape_1", "shape": [256, 256], "dtype": "float32"}, {"name": "StatefulPartitionedCall/ViT_Lite_Fixed_1/multi_head_attention_1_2/attention_output_1/BiasAdd/ReadVariableOp", "shape": [256], "dtype": "float32"}, {"name": "StatefulPartitionedCall/ViT_Lite_Fixed_1/dense_1_1/Gelu/mul/x", "shape": [], "dtype": "float32"}, {"name": "StatefulPartitionedCall/ViT_Lite_Fixed_1/layer_normalization_1_2/Reshape_1", "shape": [1, 1, 256], "dtype": "float32"}, {"name": "StatefulPartitionedCall/ViT_Lite_Fixed_1/layer_normalization_1_2/moments/mean/reduction_indices", "shape": [1], "dtype": "int32"}, {"name": "StatefulPartitionedCall/ViT_Lite_Fixed_1/layer_normalization_1_2/moments/variance/reduction_indices", "shape": [1], "dtype": "int32"}, {"name": "StatefulPartitionedCall/ViT_Lite_Fixed_1/layer_normalization_1_2/add/y", "shape": [], "dtype": "float32"}, {"name": "StatefulPartitionedCall/ViT_Lite_Fixed_1/layer_normalization_1_2/Reshape", "shape": [1, 1, 256], "dtype": "float32"}, {"name": "StatefulPartitionedCall/ViT_Lite_Fixed_1/dense_1_1/Cast/ReadVariableOp", "shape": [256, 512], "dtype": "float32"}, {"name": "StatefulPartitionedCall/ViT_Lite_Fixed_1/dense_1_1/BiasAdd/ReadVariableOp", "shape": [512], "dtype": "float32"}, {"name": "StatefulPartitionedCall/ViT_Lite_Fixed_1/dense_1_1/Gelu/Cast/x", "shape": [], "dtype": "float32"}, {"name": "StatefulPartitionedCall/ViT_Lite_Fixed_1/dense_2_1/Cast/ReadVariableOp", "shape": [512, 256], "dtype": "float32"}, {"name": "StatefulPartitionedCall/ViT_Lite_Fixed_1/dense_2_1/BiasAdd/ReadVariableOp", "shape": [256], "dtype": "float32"}, {"name": "StatefulPartitionedCall/ViT_Lite_Fixed_1/multi_head_attention_1/key_1/Reshape", "shape": [256, 256], "dtype": "float32"}, {"name": "StatefulPartitionedCall/ViT_Lite_Fixed_1/multi_head_attention_1/key_1/Reshape_1/shape", "shape": [4], "dtype": "int32"}, {"name": "StatefulPartitionedCall/ViT_Lite_Fixed_1/multi_head_attention_1/key_1/Add/ReadVariableOp", "shape": [4, 64], "dtype": "float32"}, {"name": "StatefulPartitionedCall/ViT_Lite_Fixed_1/multi_head_attention_1/transpose/perm", "shape": [4], "dtype": "int32"}, {"name": "StatefulPartitionedCall/ViT_Lite_Fixed_1/multi_head_attention_1/query_1/Reshape", "shape": [256, 256], "dtype": "float32"}, {"name": "StatefulPartitionedCall/ViT_Lite_Fixed_1/multi_head_attention_1/query_1/Reshape_1/shape", "shape": [4], "dtype": "int32"}, {"name": "StatefulPartitionedCall/ViT_Lite_Fixed_1/multi_head_attention_1/query_1/Add/ReadVariableOp", "shape": [4, 64], "dtype": "float32"}, {"name": "StatefulPartitionedCall/ViT_Lite_Fixed_1/multi_head_attention_1/Cast/x", "shape": [], "dtype": "float32"}, {"name": "StatefulPartitionedCall/ViT_Lite_Fixed_1/multi_head_attention_1/transpose_1/perm", "shape": [4], "dtype": "int32"}, {"name": "StatefulPartitionedCall/ViT_Lite_Fixed_1/multi_head_attention_1/transpose_2/perm", "shape": [4], "dtype": "int32"}, {"name": "StatefulPartitionedCall/ViT_Lite_Fixed_1/layer_normalization_1/Reshape_1", "shape": [1, 1, 256], "dtype": "float32"}, {"name": "StatefulPartitionedCall/ViT_Lite_Fixed_1/layer_normalization_1/moments/mean/reduction_indices", "shape": [1], "dtype": "int32"}, {"name": "StatefulPartitionedCall/ViT_Lite_Fixed_1/layer_normalization_1/moments/variance/reduction_indices", "shape": [1], "dtype": "int32"}, {"name": "StatefulPartitionedCall/ViT_Lite_Fixed_1/layer_normalization_1/add/y", "shape": [], "dtype": "float32"}, {"name": "StatefulPartitionedCall/ViT_Lite_Fixed_1/layer_normalization_1/Reshape", "shape": [1, 1, 256], "dtype": "float32"}, {"name": "StatefulPartitionedCall/ViT_Lite_Fixed_1/multi_head_attention_1/value_1/Reshape", "shape": [256, 256], "dtype": "float32"}, {"name": "StatefulPartitionedCall/ViT_Lite_Fixed_1/multi_head_attention_1/value_1/Reshape_1/shape", "shape": [4], "dtype": "int32"}, {"name": "StatefulPartitionedCall/ViT_Lite_Fixed_1/multi_head_attention_1/value_1/Add/ReadVariableOp", "shape": [4, 64], "dtype": "float32"}, {"name": "StatefulPartitionedCall/ViT_Lite_Fixed_1/multi_head_attention_1/transpose_3/perm", "shape": [4], "dtype": "int32"}, {"name": "StatefulPartitionedCall/ViT_Lite_Fixed_1/multi_head_attention_1/transpose_4/perm", "shape": [4], "dtype": "int32"}, {"name": "StatefulPartitionedCall/ViT_Lite_Fixed_1/multi_head_attention_1/attention_output_1/Reshape/shape", "shape": [3], "dtype": "int32"}, {"name": "StatefulPartitionedCall/ViT_Lite_Fixed_1/multi_head_attention_1/attention_output_1/Reshape_1", "shape": [256, 256], "dtype": "float32"}, {"name": "StatefulPartitionedCall/ViT_Lite_Fixed_1/multi_head_attention_1/attention_output_1/BiasAdd/ReadVariableOp", "shape": [256], "dtype": "float32"}, {"name": "StatefulPartitionedCall/ViT_Lite_Fixed_1/conv2d_1/convolution/ReadVariableOp", "shape": [16, 16, 3, 256], "dtype": "float32"}, {"name": "StatefulPartitionedCall/ViT_Lite_Fixed_1/conv2d_1/Squeeze", "shape": [256], "dtype": "float32"}, {"name": "StatefulPartitionedCall/ViT_Lite_Fixed_1/reshape_1/strided_slice/stack", "shape": [1], "dtype": "int32"}, {"name": "StatefulPartitionedCall/ViT_Lite_Fixed_1/reshape_1/strided_slice/stack_1", "shape": [1], "dtype": "int32"}, {"name": "StatefulPartitionedCall/ViT_Lite_Fixed_1/reshape_1/strided_slice/stack_2", "shape": [1], "dtype": "int32"}, {"name": "StatefulPartitionedCall/ViT_Lite_Fixed_1/reshape_1/Reshape/shape/1", "shape": [], "dtype": "int32"}, {"name": "StatefulPartitionedCall/ViT_Lite_Fixed_1/reshape_1/Reshape/shape/2", "shape": [], "dtype": "int32"}, {"name": "StatefulPartitionedCall/ViT_Lite_Fixed_1/patch_encoder_1/dense_1/Cast/ReadVariableOp", "shape": [256, 256], "dtype": "float32"}, {"name": "StatefulPartitionedCall/ViT_Lite_Fixed_1/patch_encoder_1/dense_1/BiasAdd/ReadVariableOp", "shape": [256], "dtype": "float32"}, {"name": "StatefulPartitionedCall/ViT_Lite_Fixed_1/patch_encoder_1/embedding_1/GatherV2", "shape": [196, 256], "dtype": "float32"}, {"name": "StatefulPartitionedCall/ViT_Lite_Fixed_1/layer_normalization_8_1/moments/mean/reduction_indices", "shape": [1], "dtype": "int32"}, {"name": "StatefulPartitionedCall/ViT_Lite_Fixed_1/layer_normalization_8_1/moments/variance/reduction_indices", "shape": [1], "dtype": "int32"}, {"name": "StatefulPartitionedCall/ViT_Lite_Fixed_1/layer_normalization_8_1/add/y", "shape": [], "dtype": "float32"}, {"name": "StatefulPartitionedCall/ViT_Lite_Fixed_1/layer_normalization_8_1/Reshape", "shape": [1, 1, 256], "dtype": "float32"}, {"name": "StatefulPartitionedCall/ViT_Lite_Fixed_1/global_average_pooling1d_1/Mean/reduction_indices", "shape": [], "dtype": "int32"}, {"name": "StatefulPartitionedCall/ViT_Lite_Fixed_1/dense_9_1/Cast/ReadVariableOp", "shape": [256, 256], "dtype": "float32"}, {"name": "StatefulPartitionedCall/ViT_Lite_Fixed_1/dense_9_1/BiasAdd/ReadVariableOp", "shape": [256], "dtype": "float32"}, {"name": "StatefulPartitionedCall/ViT_Lite_Fixed_1/dense_10_1/Cast/ReadVariableOp", "shape": [256, 2], "dtype": "float32"}, {"name": "StatefulPartitionedCall/ViT_Lite_Fixed_1/dense_10_1/BiasAdd/ReadVariableOp", "shape": [2], "dtype": "float32"}]}]}